checkpoint_critic.pth (torch_old, 263356 bytes, 5 tensors)

fcs1.weight f4 [400, 33]
000000 89 c1 fc bc cc 7c 05 3f ad 13 b3 be f6 d6 90 bf
       -0.030854004 0.5214355 -0.3497595 -1.1315601
000010 45 b9 ab 3e c7 03 c6 3e 14 fc 85 3f d4 d7 6b bb
       0.33539787 0.38674757 1.0467553 -0.0035986798
000020 a9 07 19 bd 7f 43 cc 3d 79 4a 11 be 1b 35 86 3d
       -0.03736082 0.09973811 -0.14188565 0.06553098
000030 65 3f ef bd 71 80 af bc d5 b1 c1 be 45 c0 2c be
       -0.116820134 -0.02142355 -0.37830988 -0.1687022
000040 20 ff aa bf 70 44 13 3f 9e d7 52 3f cc b4 2d bf
       -1.3359108 0.575263 0.82360256 -0.67854
000050 87 90 05 3e 37 a7 2b 3d 05 16 f0 3d bb 3f 90 be
       0.13043414 0.041907515 0.1172295 -0.28173622
000060 0c eb 26 bc e9 3c 39 be b5 55 b6 3d 5b 5f cb 3e
       -0.0101878755 -0.18089642 0.08903066 0.39721188
000070 a4 9a 5b 3e 40 0f 01 ba 95 66 c6 be e4 5d 6c 3c
       0.2144571 -0.0004923232 -0.3875014 0.014426682
000080 93 a9 39 bf 5b b2 a7 be 92 25 86 3e ba 52 9f 3e
       -0.72524375 -0.32753262 0.2620054 0.31117803
000090 bd 08 17 3f 99 c9 5a bf 21 e6 de 3e 01 1a 7d 3e
       0.5899771 -0.85463864 0.4353495 0.24716951
0000a0 49 57 6b be 0c 22 c2 bc 86 aa 0b 3e d4 47 ea 3c
       -0.22982515 -0.023697875 0.13639268 0.028598703
0000b0 3e 34 2e 3e 3f f0 19 3e 88 00 32 be f4 6a 11 3e
       0.17012116 0.15033053 -0.17383015 0.14200956
0000c0 d9 0b 55 be 2c ce 33 3f 4f 4b d2 3b 72 70 ea 3d
       -0.20805301 0.7023647 0.006417669 0.114472285
0000d0 39 52 0c bf 50 b6 84 bb 2a 16 df be 7c 26 7b 3c
       -0.5481296 -0.0040500537 -0.43571597 0.015329
0000e0 5b c7 fc 3d 87 9b 09 be b2 59 ea 3d 09 1c be 3e
       0.123427115 -0.13438235 0.11442889 0.37130764
0000f0 6e e7 a0 3e 89 34 69 bc 00 bf 9a bb 7e 7e 92 be
       0.31426567 -0.014233717 -0.004722476 -0.2861213
000100 52 a1 9d 3c f0 eb 99 3e 52 98 e9 3c 57 ec 91 bd
       0.019241963 0.3006282 0.028515015 -0.071251564
000110 de 23 c5 3d c1 b6 1d bf ee 9a 02 3d 22 a7 c4 3f
       0.09625982 -0.61606985 0.031886034 1.5363505
000120 2b 39 29 3f f6 ae 5f 3e c0 53 06 3e bf ec 60 be
       0.66102856 0.21844086 0.13117886 -0.21965311
000130 99 e6 90 bb e6 7c a6 bd 27 a3 7b bc 0a b3 4e 3e
       -0.0044220206 -0.08129291 -0.015358723 0.20185485
000140 04 72 f0 3d ad 76 03 be a7 8a 27 3f 9a 76 9f bf
       0.11740497 -0.1283824 0.6544594 -1.2458069
000150 4c 79 29 bf 35 74 2b 3d 3c 3b 92 3d 38 a1 07 bd
       -0.6620071 0.04185887 0.07140204 -0.033112735
000160 7d 0c a1 3d 77 61 09 be be 17 99 bc 72 27 be 3d
       0.0786371 -0.13416086 -0.018688079 0.09284867
000170 c3 74 5f be 7c c4 e7 3d fe 81 a5 3c 50 85 9c bb
       -0.21821885 0.11316773 0.020203587 -0.0047766343
000180 46 46 19 be 34 8e 07 bd 51 13 72 3d 18 37 7c 3e
       -0.14968213 -0.0330946 0.059100453 0.24630392
000190 70 ac b4 3e 41 68 38 be ae 36 81 3d 0b f5 3a bd
       0.3528781 -0.1800852 0.063092574 -0.045643847
0001a0 7e f3 c1 3e e6 f3 93 bf ca d7 e3 bc 83 0d be be
       0.37881082 -1.1558807 -0.027812857 -0.37119684
0001b0 9c e9 46 bf 94 f7 e8 3d 85 06 0c 3e f7 ce a1 bd
       -0.7770021 0.11375347 0.13674362 -0.079008035
0001c0 6d 5b ea bd 87 da 54 3e c7 38 8e bd 99 01 0b be
       -0.11443219 0.20786487 -0.06944423 -0.13574828
0001d0 4b 3c 63 bf 3f 69 f8 3e 2d b2 c9 be 96 34 8e bd
       -0.88763875 0.48517796 -0.3939375 -0.06943624
0001e0 56 54 1b 3d d9 7f 76 3d 80 1a 93 bd 53 70 54 3e
       0.037922226 0.06018052 -0.07182789 0.20745973
0001f0 4a 5e d3 bd 1e 81 98 be 05 4d ac 3e 15 6a ae 3d
       -0.103207186 -0.2978601 0.3365251 0.08516327
000200 b6 a7 d5 3c 1f c9 9e be 50 58 09 bb da 92 c4 3e
       0.026080947 -0.31012818 -0.002095718 0.3839329
000210 2b 1c 66 3e c2 1b b3 3e 48 9b 4e be 48 1f 86 bd
       0.22471683 0.34982115 -0.20176423 -0.06548935
000220 b6 43 6a 3e 66 e4 bc be 18 18 27 3c c4 0a 85 bc
       0.22877392 -0.36893004 0.0101986155 -0.016240485
000230 6f ad 97 3d 0c 65 a7 3c f2 88 0a bd 3e 85 45 3d
       0.07406127 0.020433925 -0.033822007 0.048222773
000240 af e9 fa bc 9a ca d6 be ae 97 b9 be 23 2f 41 3e
       -0.030629007 -0.41951448 -0.36248535 0.18865637
000250 a9 ff 12 3e c1 25 ec 3d 0d 80 55 be 90 c0 58 be
       0.14355339 0.115306385 -0.20849629 -0.21167207
000260 19 46 2d 3d c3 a6 c4 3d 92 4e 50 3d fe d7 85 3d
       0.04230318 0.0960212 0.05085618 0.06535338
000270 3a 37 83 bd 76 52 9e 3c 6a d3 94 3e 73 09 3b 3e
       -0.06407018 0.01932643 0.29067546 0.18265323
000280 e1 19 d1 bd 90 1e eb bc 80 b2 33 be d2 f5 d2 3c
       -0.10210014 -0.028701097 -0.17548561 0.025751982
000290 b6 69 d0 be 90 48 85 be 62 49 dd bd 7b fc 0c be
       -0.4070565 -0.26031923 -0.10805012 -0.13768189
0002a0 77 2b 2e be f3 0f 53 bf c6 0f 8d 3f 30 aa b0 3c
       -0.17008768 -0.8244621 1.1020439 0.021565527
0002b0 32 bb af 3d 0a 32 de 3c 97 c1 98 3c c5 58 1a 3d
       0.085806265 0.02712347 0.018646998 0.037682313
0002c0 12 26 89 3c 2a b0 28 3d 6d 78 ca 3e 2d a9 a0 3e
       0.016741786 0.04118363 0.39545003 0.3137907
0002d0 c3 d3 d4 3e 84 3a d6 3c cd 8c 36 3e 0a 8f 70 bf
       0.4156781 0.02615095 0.17827149 -0.9396826
0002e0 e1 fa 93 3e ce a9 3d 3c a2 88 21 3e b8 da 1b bc
       0.28902343 0.011576129 0.15774778 -0.009512596
0002f0 a8 78 ed 3c 95 8e 8d 3d da 47 71 3b 0e c3 88 be
       0.028988197 0.06911961 0.0036816509 -0.26711315
000300 da 9f db 3c d3 cf 8d be 5d 50 42 bd a8 d4 40 bd
       0.026809622 -0.2769762 -0.04743992 -0.047077805
000310 40 36 43 bc 4e df d2 3e 03 63 31 be 69 d5 1d 3e
       -0.01191479 0.41185993 -0.17322926 0.15413441
000320 7c 2b 00 3f da 43 1a 3e 54 ce 59 bc 38 e6 ae 3e
       0.5006635 0.15064946 -0.013293821 0.34160018
000330 63 fc 66 be a7 88 82 be f4 ac 9f be eb 6a eb be
       -0.22557215 -0.25494882 -0.3118664 -0.4598001
000340 dc f8 d8 3c e3 55 00 bd 4b fc 0d bd e8 82 57 3e
       0.026485853 -0.031331908 -0.034664433 0.2104603
000350 08 80 db 3d 4d 02 b5 be ce cf ad be 9f 82 e6 be
       0.107177794 -0.35353318 -0.33947605 -0.4502153
000360 2a a7 a6 3f 30 cd 97 bf e7 8e 35 3d b3 83 d2 3c
       1.3019764 -1.1859493 0.044325735 0.025697565
000370 d5 a0 0c 3e 60 f1 42 3e 9a ea 8a bd ba 5c 49 be
       0.13733228 0.1903739 -0.06783028 -0.19664279
000380 e4 eb 50 be 45 6a c2 3d b7 0d 4f 3e 36 4b b0 3c
       -0.20402485 0.094929256 0.20220076 0.021520238
000390 b6 52 fe bd 30 27 29 bd d8 f2 f5 3d 45 27 95 3c
       -0.124181196 -0.041297138 0.120092094 0.018207202
0003a0 f0 38 16 be cd 86 4c bd 14 ab 97 be b3 50 c1 3e
       -0.14670157 -0.049933244 -0.2962271 0.3775688
0003b0 51 08 be 3e 61 f3 e7 bd 89 88 50 3d 09 94 90 bd
       0.3711572 -0.11325718 0.05091146 -0.070594855
0003c0 ec 62 cc bd 6a 4c 0d 3d cb c6 c5 bc c3 08 2a 3c
       -0.09979805 0.034496702 -0.024142643 0.0103780655
0003d0 db b4 84 bd f5 90 b7 3d 21 cd d6 bd 39 c7 67 bd
       -0.06479808 0.08963195 -0.10488344 -0.056586478
0003e0 bb 0b 13 3d 15 e8 9a bd ee da 9e be e6 f1 25 3d
       0.03589986 -0.075637974 -0.31026405 0.040513895
0003f0 41 2c 61 bd aa ad e1 bc 94 bb dd 3b 6d d2 be 3c
       -0.054973844 -0.02754863 0.006766746 0.023293698

fcs1.bias f4 [400]
000000 1d 56 9d be 74 13 39 be bb 29 3f bd f5 f0 a5 be
       -0.30729762 -0.18073827 -0.046670657 -0.32410398
000010 5a a0 af be 8e b9 75 3d 9a 77 03 be 80 0d 6d be
       -0.34302026 0.059991412 -0.12838593 -0.23149681
000020 1c bf 25 bd eb d8 27 bf f2 c6 35 bf cf 59 09 be
       -0.04046546 -0.65565366 -0.7100669 -0.13413166
000030 a5 86 2f be 5c 65 05 bf fe 7a 92 be 0b e7 ff 3d
       -0.17141207 -0.5210779 -0.2860946 0.1249524
000040 dc d8 21 bf ed 81 1b bf ba 65 2c bf 55 4b f0 be
       -0.63221526 -0.60745126 -0.6734272 -0.46932474
000050 23 47 c3 bd ec 0f cf be e1 9f 81 be 10 0a d7 be
       -0.095350526 -0.40441835 -0.2531729 -0.41999865
000060 4c 2f 08 bf f0 86 ab 3e 83 14 b1 be 6c 42 f5 be
       -0.5319717 0.33501387 -0.34585962 -0.47902238
000070 0f f3 67 be da ef a7 be 9d 0d cc be 7e 54 d4 be
       -0.22651313 -0.3280018 -0.39854136 -0.41470712
000080 10 5f fb be c2 b5 f3 be 4b ae 52 bf fa ee 17 3d
       -0.49095964 -0.47599608 -0.822972 0.03709314
000090 8c ed 93 be 92 06 a7 be 83 a2 f7 be eb f3 55 bf
       -0.2889217 -0.326222 -0.48366174 -0.83575314
0000a0 f1 4d 74 be 35 47 6a be fe 33 9b be 36 60 7e be
       -0.23857857 -0.22878726 -0.30313104 -0.24841389
0000b0 14 15 7f be 34 d6 f6 be ec 53 9d be 3d 73 fa be
       -0.24910384 -0.482103 -0.3072809 -0.48916045
0000c0 4d 01 00 bf ac c1 1a bf b4 5e 0f 3c 8d be c0 be
       -0.50001985 -0.6045177 0.008750606 -0.3764538
0000d0 14 af 99 3e f4 e3 8a be c1 d9 f0 be 7f 6b 99 be
       0.30016387 -0.2712704 -0.47041133 -0.29964826
0000e0 be 02 1a bf 5d 82 2c bf 56 3d 98 be fb 5a 9c be
       -0.60160434 -0.6738642 -0.29734296 -0.30538163
0000f0 9b 77 4a bf 95 0a e4 be ee 96 e3 be 31 9d 98 be
       -0.79088753 -0.44539323 -0.44451088 -0.29807428
000100 88 d7 2a bf 0f bc d8 be e1 e5 2b be 5e 56 ec be
       -0.66735125 -0.42330977 -0.1678691 -0.46159643
000110 a7 6f 0d be 88 55 c0 be 6e 8c c6 be bc 3e 73 be
       -0.13812123 -0.37565255 -0.38779014 -0.237544
000120 dc 87 fb be c7 13 87 be cc 90 9a be 8b df 23 bf
       -0.4912709 -0.26382276 -0.30188596 -0.64012975
000130 47 9f 00 bd 3e fc 70 be c9 6c a1 be 5a e7 66 bf
       -0.0314019 -0.23533723 -0.3152831 -0.90196764
000140 d1 8e 7d bd 46 6c f3 be bf 3c a8 be 6c f5 e7 be
       -0.06190378 -0.47543544 -0.32858846 -0.4530443
000150 8d 1e b2 be 4c 24 7d be 59 34 9e be de c1 89 be
       -0.34788933 -0.24720877 -0.30899313 -0.2690572
000160 26 71 48 bf 04 20 97 be 62 5b 53 be 3c ea 38 bf
       -0.7829765 -0.29516613 -0.20640329 -0.72232413
000170 05 90 14 bf 70 f5 24 bf 81 5b 49 bf 6f 1a 61 bf
       -0.58032256 -0.6443701 -0.7865525 -0.8793096
000180 c5 da bf be 25 99 4b be 96 0b f4 be 33 9f 00 bf
       -0.37471595 -0.19882639 -0.4766509 -0.5024292
000190 6a 93 8e be bc 58 55 3d 6c fe 9e be aa fc 30 3e
       -0.27846843 0.052086577 -0.31053483 0.17283884
0001a0 2a 61 8c bd 4a e0 3f bf 74 50 a3 be 1c b3 83 be
       -0.0685447 -0.7495161 -0.31897318 -0.25722587
0001b0 40 9f 5d bf 50 22 76 be f8 ac 08 bb 56 88 0c bf
       -0.8657112 -0.24036527 -0.002085505 -0.5489553
0001c0 89 b2 b2 be 35 84 a6 be cf da c3 be 8c d9 fb be
       -0.34901837 -0.3252274 -0.38252875 -0.49189413
0001d0 ac ea 14 bf 5f 50 f9 be 4c 44 21 3e 9d 97 01 3f
       -0.5817058 -0.4869413 0.1574871 0.5062197
0001e0 c2 ba c7 be 15 6b d1 be 00 9a 12 be b1 26 2b 3f
       -0.39009672 -0.4090201 -0.14316559 0.66855913
0001f0 8b 06 af bd 60 18 b0 be 19 bd 4c be d7 df c0 bd
       -0.0854617 -0.34393597 -0.1999401 -0.09417694
000200 21 a8 94 be 22 67 63 be 94 3e 15 bf c5 1f 1b bf
       -0.29034522 -0.22207311 -0.5829861 -0.6059535
000210 5e 28 f7 bd 9d 16 01 bf d6 5a 36 be 3c d9 08 be
       -0.12068246 -0.5042513 -0.17808089 -0.13364118
000220 34 9d 21 bf b7 6c 53 3e 6f 7a 26 bf db e2 e1 be
       -0.631305 0.2064694 -0.6503057 -0.4411839
000230 cc 05 0b be 12 62 10 bf 6b 34 da be 1a ac 11 bf
       -0.1357643 -0.56399643 -0.42618117 -0.5690323
000240 27 58 98 be 95 ea 08 bf 7d d8 1a bf dd 9c 97 be
       -0.29754755 -0.53482944 -0.60486585 -0.29611865
000250 0b 56 3f be 98 12 a5 be 31 38 bf be f5 2f 0e be
       -0.18685167 -0.32240748 -0.37347558 -0.13885482
000260 c1 8e 17 bf c4 d2 48 bd 32 57 ce be 59 16 27 bf
       -0.592022 -0.049029127 -0.403009 -0.65268475
000270 28 75 23 bf 62 86 15 be cb 55 32 bf 3c e3 e4 be
       -0.6385064 -0.14602044 -0.6966216 -0.44704616
000280 bb 8f f0 be f9 4e a3 be c4 ca de be 01 78 fb be
       -0.46984658 -0.3189619 -0.43514073 -0.49114993
000290 f5 3b 95 be 5e 15 0b bf 90 8e f1 be 93 d2 d5 be
       -0.29147306 -0.5432948 -0.4717908 -0.41762218
0002a0 bd e8 db be 43 86 41 bf 12 bb 26 bf 21 29 dd be
       -0.42951003 -0.7559549 -0.65129197 -0.4319544
0002b0 1f e0 fc be b2 82 ec be 84 e8 37 bf 32 55 9a be
       -0.4938974 -0.46193463 -0.71839166 -0.30143124
0002c0 49 fc 9d be f9 59 97 bd 67 7a da be 4e ed 98 bc
       -0.3085654 -0.07390208 -0.4267151 -0.018667843
0002d0 f9 ce 20 bf 4c 97 18 be 50 4c 96 be b7 49 14 bf
       -0.62815815 -0.14901465 -0.29355097 -0.5792498
0002e0 ba fd a5 be 1d e7 1c bf 4a ec f5 be f0 63 10 bb
       -0.3242014 -0.6129015 -0.48031837 -0.0022032224
0002f0 11 a4 e2 be 15 40 e4 be 05 7a ce be 49 7a c9 bd
       -0.44265798 -0.4458014 -0.4032747 -0.09837777
000300 a2 2a e0 be 42 36 a8 be bf f5 32 bf 08 23 16 bf
       -0.43782526 -0.32853895 -0.6990623 -0.58647203
000310 8e de c1 be 83 39 8b bd f2 01 f6 be f0 6a 5f be
       -0.37865108 -0.06798079 -0.4804836 -0.21818137
000320 30 f5 b9 be 5d eb f6 be 06 c7 a1 be 62 6c eb bc
       -0.36319876 -0.48226443 -0.31597155 -0.028738204
000330 41 55 f2 bd 04 75 8a bd 31 72 4a bf 72 d6 79 be
       -0.11832667 -0.067606 -0.7908049 -0.2439821
000340 32 d9 5a bc d6 a1 c9 be 92 23 b9 ba b6 3c 1b be
       -0.013357447 -0.39381284 -0.0014124981 -0.15159878
000350 f5 f2 ed be c9 4e b0 bd d5 3e e4 be 28 d2 30 bf
       -0.46474424 -0.08608777 -0.44579187 -0.69070673
000360 fe f7 08 bf eb da 41 bf 80 20 a3 be db b1 52 be
       -0.53503406 -0.7572467 -0.31860733 -0.20575659
000370 9c 94 e8 be 30 36 c0 be d9 b7 10 bf 4e 6e 80 be
       -0.4542588 -0.37541342 -0.5653053 -0.25084156
000380 e5 b6 55 be 4a 60 f8 be 2a 1d 52 be 0c 04 9a be
       -0.2087055 -0.48510963 -0.20518938 -0.30081213
000390 8d 8f 50 be 6f 42 d9 be c2 de 01 bf 6f 1f 1b 3e
       -0.2036726 -0.42433497 -0.50730526 0.1514871
0003a0 9c 90 4c be d2 ef f6 be ad fc 84 3e 2e 96 40 3e
       -0.19977039 -0.48229843 0.25974026 0.18807289
0003b0 d1 64 90 be 27 62 c8 be df f5 f3 be 00 bc 22 be
       -0.28201917 -0.39137384 -0.47648522 -0.15892029
0003c0 5c 2a 26 bf 64 95 99 be bb a6 f1 be a1 40 bf be
       -0.64908385 -0.29996789 -0.47197518 -0.37353995
0003d0 ce 20 2a bf 13 b2 e8 be af 47 00 bf 20 df a6 be
       -0.66456306 -0.4544836 -0.5010938 -0.32592106
0003e0 59 72 bb be 6f 89 db be b4 51 ec be 7e 0c cf be
       -0.36610678 -0.4287829 -0.46156085 -0.40439218
0003f0 99 25 1a bf 47 88 e7 bd 3c b4 07 bf 5c f5 25 be
       -0.6021362 -0.1130529 -0.5300939 -0.16206878

fc2.weight f4 [128, 404]
000000 29 89 32 be 41 67 a9 bd 83 d6 ed 3e bb 71 be 3d
       -0.17435135 -0.08271647 0.46452722 0.09299036
000010 b2 c7 40 3e a1 3a 48 bd d5 31 89 bd 90 4b 77 3d
       0.18826178 -0.048884038 -0.06698958 0.060374796
000020 ea 3b 00 bb 70 62 2a bd df f6 53 bc 5c 29 d2 bc
       -0.0019566962 -0.041597784 -0.012937277 -0.025654487
000030 60 e1 2d 3e c6 da b5 be 89 66 dd 3d ec a7 27 bd
       0.16980505 -0.35518473 0.10810573 -0.040931627
000040 e6 de c7 be ac f2 09 be 13 93 1b bf 01 8f 64 3e
       -0.39037246 -0.13471478 -0.6077129 0.22320177
000050 5c 46 6e 3e 6a a2 42 3d cb 31 95 3e d4 4b 37 3e
       0.23269027 0.04751817 0.29139552 0.1790002
000060 b9 41 84 3e 68 72 d2 3c af e4 f6 3d e4 46 83 be
       0.25831392 0.025689319 0.12055337 -0.25640023
000070 9f c0 ce be 8f fd bc 3d 3a 9e 90 3e ca e1 e8 3e
       -0.40381333 0.0922805 0.28245717 0.45484763
000080 4c c2 66 3e e5 54 99 3e c8 da 40 3e a8 58 a4 3e
       0.22535056 0.29947582 0.18833458 0.3209889
000090 9d 0c d2 3e f1 30 1f 3e a7 78 a6 bd 2b 90 cb bd
       0.41025248 0.15546013 -0.08128481 -0.09939607
0000a0 94 6b 05 bf 18 9b 50 bd 0d 2c 05 3d b2 32 4a be
       -0.52117276 -0.05092916 0.032512713 -0.19745901
0000b0 47 34 4d be 6e f7 17 3f 47 8c 24 bf 5b 48 9e bd
       -0.20039473 0.5936192 -0.64276546 -0.077286445
0000c0 fd c8 ff be 3f 34 8e 3e 61 b9 70 bd ee 0b 03 3e
       -0.4995803 0.27774236 -0.05877054 0.1279752
0000d0 3d 78 6b bd da 40 aa 3e f3 4b 44 be f0 25 bb 3d
       -0.057487715 0.33252603 -0.19169597 0.091380954
0000e0 a0 1a 83 bd 3e 04 c3 3e f9 4f 22 3d 48 8b b8 bb
       -0.06401563 0.38089174 0.03962705 -0.005631838
0000f0 b0 44 db bd bf cf d0 3d 1c 74 f4 be 73 1f 85 3e
       -0.107064605 0.101958744 -0.47744834 0.26000556
000100 a0 e3 37 3c d5 fa f3 ba 95 c5 96 bd fc 7c c6 bd
       0.011223704 -0.0018614182 -0.073619045 -0.09691808
000110 cd 42 f3 bd cb b8 4f 3e 87 5e 56 3e 78 36 71 3e
       -0.118779756 0.20285337 0.20934497 0.23555934
000120 5f 92 8b bc cb f9 70 3d 04 e5 6f 3c a7 f0 60 3c
       -0.017037569 0.05883197 0.014642004 0.013729251
000130 ca c6 c3 bd 92 bc 4d bd f6 79 15 3f 19 64 9d bd
       -0.095594004 -0.050228663 0.5838922 -0.07685108
000140 30 c9 e7 3d 81 6a 8b bc ce f1 93 be 84 ae 51 be
       0.1131767 -0.017018558 -0.2889542 -0.20476729
000150 b3 1b ad bc 26 57 d4 bd 74 c9 d6 bd 29 f6 0b bd
       -0.021131372 -0.10368185 -0.10487643 -0.034170303
000160 a0 f0 16 be 2e 7d 90 bd a6 9d 71 be 4f f2 d6 3c
       -0.14740229 -0.07055126 -0.23595294 0.026238589
000170 c8 4a a4 3e 1c 8b 11 3e 9d 5c 8a be cb 19 8e 3d
       0.32088304 0.14213222 -0.27023783 0.06938513
000180 c5 73 0f be 04 79 98 3d 99 2a 6b be 95 0f 0c 3f
       -0.14009006 0.07444957 -0.22965468 0.54711276
000190 80 ed 07 be 32 ec 9a 3e ea 6c 61 3e 5c ed bb 3d
       -0.13274193 0.30258328 0.22014204 0.09176132
0001a0 da 54 08 3e 88 3f a7 be 37 53 df be bc 7b b3 3c
       0.13313618 -0.32665658 -0.43618175 0.021909587
0001b0 5d db af 3e 52 fc ec 3e 05 b2 3b be ef 59 be 3e
       0.34347048 0.46286255 -0.18329628 0.3717799
0001c0 57 32 f4 3c e7 0a 63 be a8 90 25 be 96 1b df 3e
       0.02980916 -0.22172128 -0.16168463 0.43575734
0001d0 bb fe b5 3d ac 70 84 3e b2 2f 78 3e 48 13 18 bc
       0.088864766 0.25867212 0.24236944 -0.009281941
0001e0 79 3e 3b 3e b5 70 35 3d af 99 66 3e 7a 5f be 3d
       0.1828555 0.04429694 0.22519563 0.092955545
0001f0 33 39 f4 be ea d7 75 be fa 47 fa bd 04 c7 d1 3e
       -0.4769989 -0.24008146 -0.1222076 0.4097215
000200 31 da d5 ba bf c5 7a be 6a 3d b8 3d 84 9a 06 be
       -0.0016315636 -0.24489497 0.08996089 -0.1314488
000210 a4 15 c4 3d e0 c9 1b bd 25 5b 60 bd fc 41 25 bb
       0.0957444 -0.03803432 -0.054774422 -0.0025216332
000220 5c c7 94 3e 23 32 f1 bd eb 5e 28 3e b8 e2 93 be
       0.2905835 -0.11777141 0.16442458 -0.2888391
000230 b9 73 0f 3d 4a fb 59 3f 8b f7 fc bd b0 c4 11 3d
       0.03502247 0.8514906 -0.123519026 0.035587966
000240 94 ee 0c bf 63 78 82 3e 0f 6f 65 bd 66 7d 13 be
       -0.5505154 0.25482473 -0.056014117 -0.14403304
000250 8a 0e d9 3d d4 b6 92 3c ee fc 2a 3e 04 d2 61 bd
       0.10598476 0.017909445 0.16698048 -0.055131927
000260 d5 93 7b be 7a 52 61 be 2f fb f1 bc b7 3c b5 bd
       -0.24568112 -0.22004119 -0.029538719 -0.08849471
000270 e7 01 27 3f 0f 5e 00 bf cb 50 8c 3d ba 0c d8 3d
       0.6523728 -0.5014352 0.068513475 0.105493024
000280 aa 47 31 3e 97 27 78 bb e0 80 23 3e c4 0a 8d bd
       0.17312494 -0.0037865394 0.1596713 -0.06886819
000290 87 e0 ca 3d 16 0d d4 3e eb b3 9a 3e eb 04 d1 bc
       0.099061064 0.41416234 0.30215392 -0.02551504
0002a0 f9 45 58 be e1 cb 8b bd 5c f3 0d bd a1 d0 28 3e
       -0.21120442 -0.06825996 -0.034655914 0.16485836
0002b0 2e e4 39 be ba 5c 43 3d ce d3 9f 3e a4 9f c2 3e
       -0.1815345 0.047695853 0.31216282 0.3801242
0002c0 1a 9f 70 3e 9f db 80 bd 1f 7a 9b 3e c8 2f 30 be
       0.23498192 -0.062918894 0.30366609 -0.17205727
0002d0 6a b9 57 bd 95 c0 4c 3d 28 b7 0c bd b1 86 26 3f
       -0.05266706 0.049988348 -0.03435436 0.6504927
0002e0 07 52 b9 be c3 83 bb bd 45 45 4c be c7 7e 49 bc
       -0.36195394 -0.09155991 -0.19948299 -0.0122982925
0002f0 e7 92 ad 3d 77 3e 06 3f 21 74 a8 be be d1 f4 3e
       0.08475285 0.52439064 -0.329011 0.4781627
000300 a3 13 71 bb 38 4f 6a bc be 4b ec be 45 0e 45 3e
       -0.0036785386 -0.014301114 -0.46151537 0.19243725
000310 37 4e fc bc c4 07 0a be 6e 3c 37 bf 01 a2 a4 be
       -0.030799014 -0.13479525 -0.71576583 -0.3215485
000320 d4 06 9a be 1a 0f 2d 3e 2b a6 6a be b3 c3 93 bc
       -0.30083334 0.16900292 -0.2291495 -0.018037653
000330 19 4f 6c be 6c d0 82 bd c0 e5 77 3c 47 5d e4 be
       -0.23077048 -0.063874096 0.01513046 -0.44602415
000340 91 00 8a 3e 58 46 59 3d 6f d7 f7 be b3 18 b3 bd
       0.26953557 0.0530456 -0.4840655 -0.087449454
000350 83 a0 e6 3e 37 89 28 bd 5e 00 ed bd eb 32 ec 3d
       0.45044336 -0.041146483 -0.11572336 0.11533149
000360 6f fd 8e 3b 57 3f 0e bd 8a 8e c8 bd 50 6d cf 3e
       0.0043637077 -0.034728374 -0.09792812 0.40513086
000370 d7 c4 56 3e 7c 7b 8c be a0 b2 12 3e 45 45 4a bc
       0.20973526 -0.2743796 0.14325953 -0.012345617
000380 a2 be 6c 3e 3b 52 93 3e 6a 21 04 bd 5d 24 4c 3e
       0.23119596 0.28773674 -0.03225843 0.19935746
000390 44 d9 cf 3d f9 df a5 3e 3b 61 65 3d 31 18 a3 bd
       0.10148862 0.3239744 0.05600093 -0.079635985
0003a0 ae 39 52 be dc 14 61 3e 32 ee b9 bc c6 1e d3 bd
       -0.20529816 0.21980613 -0.022696588 -0.10308604
0003b0 d9 45 8e be 6c 77 d0 3d 2f 24 82 3e de 25 10 3d
       -0.27787665 0.10179028 0.2541823 0.035192363
0003c0 df 54 e4 be 3a 14 89 3b 2c e2 10 3e f9 9c da bd
       -0.44596002 0.0041833194 0.14148778 -0.106744714
0003d0 d3 0a 8e be ea 35 15 be 99 11 dc be f4 12 fc be
       -0.27742633 -0.14571348 -0.42982176 -0.4923321
0003e0 e7 c2 0c be f0 68 25 be c4 83 2b bd 96 82 da bd
       -0.13746224 -0.16153312 -0.04187371 -0.106694385
0003f0 33 d5 4d bd e6 e3 55 3e cf c4 d2 3d 80 20 66 be
       -0.05025215 0.20887718 0.102914445 -0.22473335

fc2.bias f4 [128]
000000 a8 81 75 3f 03 f0 09 bf 4d c6 98 3f c0 4e a0 bb
       0.95900965 -0.53881854 1.1935517 -0.0048922
000010 7c 8b f7 3e e8 d3 0d 3e 1f 97 40 3e 17 55 ef be
       0.48348606 0.13850367 0.18807648 -0.46744606
000020 fe 06 91 3e ae 6c 5c 3f 44 63 08 3e aa 77 ec be
       0.28325647 0.8610333 0.13319117 -0.46185046
000030 d8 be 75 3e bc 45 11 3f 0e 00 3b 3f 02 5e 80 be
       0.23998582 0.5674703 0.7304696 -0.25071722
000040 d2 1c 05 3f 22 0d 00 3f 23 8d 84 3f 45 a4 76 bf
       0.519971 0.5002004 1.0355572 -0.96344405
000050 cd e6 8f 3f a6 6b 83 3e 3b d0 8e be fd 99 62 3d
       1.124231 0.25668067 -0.27893242 0.055322636
000060 3a f3 a7 3e 75 05 60 be 3d 7c 33 be fe 2b 02 3e
       0.32802755 -0.21877082 -0.17527862 0.12712094
000070 90 22 6b 3f 7f 6e ea bd 69 f4 53 3f 96 16 cb 3f
       0.91849613 -0.11446857 0.82794815 1.5866268
000080 9f 27 1d be 73 c5 43 3e 20 56 40 3f db 18 85 3e
       -0.15347145 0.1911829 0.75131416 0.25995526
000090 12 d0 75 be cd d7 4f be 95 d6 92 3e b7 3d 6e 3f
       -0.24005154 -0.20297165 0.28679338 0.9306292
0000a0 d7 a5 2b 3f af 41 3b be 44 8c a7 be 02 ff 93 3e
       0.67049927 -0.18286775 -0.32724202 0.28905493
0000b0 28 33 83 3f 87 14 11 be 36 48 d1 3e 9c 5d 8f be
       1.0249987 -0.14167987 0.40875405 -0.28001106
0000c0 11 da 5f 3c e1 19 ea 3e 51 3d de bd 3b c2 45 3e
       0.013662831 0.4572287 -0.10851539 0.19312374
0000d0 93 11 08 3f 4f ae 76 bf d4 0c 87 3f a0 bb 13 be
       0.53151816 -0.96359724 1.055079 -0.14427042
0000e0 9e 47 89 3f d4 2b 23 bf 29 96 db be 14 a9 0a bf
       1.0724981 -0.6373875 -0.42888 -0.5416424
0000f0 df 48 10 3f 8f bf 73 3e b0 68 f2 3e 88 91 c8 bd
       0.5636119 0.23803543 0.47345495 -0.09793383
000100 0a 1b f8 bd bb c8 33 3f b1 c5 16 3f 53 96 5b be
       -0.12114532 0.70228165 0.58895403 -0.21444063
000110 1b 36 15 be 7c a4 96 be 18 52 70 3f d4 27 a1 be
       -0.14571421 -0.29422367 0.93875265 -0.314757
000120 1c c4 32 bf bb 69 80 be 08 e2 42 be 3b 07 2e 3f
       -0.6983049 -0.25080666 -0.19031537 0.6797978
000130 d9 b2 b3 bd 33 d8 e5 3e 36 09 00 bf e6 e1 19 bf
       -0.08774347 0.4489151 -0.50014055 -0.6011032
000140 6b 9b 0c be 51 90 17 3f 90 89 04 be c7 01 13 3f
       -0.13731162 0.59204584 -0.12943101 0.57424587
000150 9d d5 4e 3f 10 8e ff 3c 06 96 45 3f 48 e3 07 bb
       0.807947 0.03119567 0.7718204 -0.0020734835
000160 f9 ed 29 3d c3 7c 2f be a8 3d 52 bf 85 14 e0 be
       0.041486714 -0.17137437 -0.8212533 -0.43765655
000170 e3 3a 38 be 5e de 7e bf 80 3b 8c be e1 f6 62 3f
       -0.17991214 -0.99558055 -0.27389145 0.8865796
000180 63 79 b1 3e 92 5c 8b 3f 6f 1a 2a 3f d6 f2 32 bd
       0.34662923 1.0887625 0.66446584 -0.043688618
000190 91 1c 17 3f a6 12 a8 be 1b 1f 40 3f 82 97 f7 bd
       0.59027964 -0.32826728 0.75047463 -0.12089445
0001a0 fe e4 59 3f b0 74 4d 3f dd b1 32 be 91 c8 15 be
       0.8511504 0.80256176 -0.17450662 -0.14627291
0001b0 32 ef f3 3e 95 0c ff 3d d5 29 a2 3e b3 d3 1d be
       0.4764343 0.12453572 0.3167254 -0.15412788
0001c0 e6 82 f4 bd d1 37 29 3f 6b 54 8c 3e 64 1e 69 be
       -0.119390294 0.66100794 0.27408156 -0.227655
0001d0 7e a2 f3 bc e4 6b 6e be 45 dd b2 3e 9b 66 10 3f
       -0.029740568 -0.23283345 0.3493444 0.56406564
0001e0 a3 76 d6 3d e7 2a 1e 3f 09 39 bd 3f d8 bb be be
       0.10471847 0.61784214 1.4783031 -0.37252688
0001f0 c9 59 4c be f5 15 26 be b2 54 db be 8e 93 22 3e
       -0.19956125 -0.16219313 -0.42838055 0.158766

fc3.weight f4 [1, 128]
000000 9a 65 10 3d d2 61 6c bf 65 ca 47 3d 17 c2 64 bf
       0.035253145 -0.9233676 0.048777003 -0.8935866
000010 4f 42 3e 3d 38 50 c1 3d ed 6a 60 3d 0a 92 04 bf
       0.046449956 0.09439129 0.054789472 -0.5178534
000020 dd 6e d6 3d 2f c5 b4 3d df 10 dd 3d b5 bd 05 be
       0.10470364 0.08826672 0.107942335 -0.13060649
000030 ad 40 c4 3d bf d5 26 3d 49 7b 2d 3d 2f a8 38 bf
       0.095826484 0.040731188 0.042353902 -0.7213163
000040 64 79 d0 3d 2d ef b8 3d c4 71 84 3d c6 da 5f bd
       0.101794034 0.09029994 0.064670116 -0.054651998
000050 f4 a1 8c 3d 87 d5 4e 3d bf 8c 2c bf 5d 3f 6e 3e
       0.068668276 0.050496604 -0.6740226 0.23266359
000060 a8 74 7a 3d 7a 4c 20 bf c2 32 a3 bf e0 56 4c 3d
       0.06114641 -0.62616694 -1.2749865 0.049887538
000070 54 ec 12 3d 26 69 a9 bf ae 1c 0e 3d 87 9e 2f 3e
       0.03586991 -1.3235214 0.03469532 0.17150317
000080 ec 00 20 bf 8f 3c cd 3d 11 64 02 3d 44 2d 63 3e
       -0.62501407 0.10021316 0.031833712 0.22185236
000090 a0 65 8e bf b8 45 99 bf fc 4e 82 3d 8d 0c 8a 3d
       -1.1124763 -1.1974401 0.06362721 0.06740675
0000a0 2b b6 53 3d c1 23 98 bf 9f 9d 4d bf 15 af 86 3d
       0.0516874 -1.1885911 -0.80318636 0.06576363
0000b0 a7 83 09 3d 41 ab 9f bf 4f e1 12 3e d9 df 92 bf
       0.03357282 -1.2474138 0.14343761 -1.1474563
0000c0 80 d2 b1 bf e1 5c 13 3d 4c ea cd bf b5 d2 b5 3d
       -1.3892365 0.035977248 -1.6087127 0.0887808
0000d0 24 77 93 3d 1f 4a 7f bd 9f cf 56 3d d7 d8 a3 bf
       0.07200459 -0.062326547 0.052444097 -1.2800549
0000e0 c5 5d fe 3c 2c 2c bf bc 84 83 5f bf 8c 87 25 be
       0.031050572 -0.023336492 -0.8731005 -0.16164988
0000f0 11 3c ae 3d 72 ca 79 3d 0f d9 35 3d 1a 4e 89 bf
       0.085075505 0.060984083 0.044396456 -1.072696
000100 44 aa 85 bf 46 1f 5f 3d f7 f5 17 3d 9c 30 55 bf
       -1.0442586 0.054473184 0.037099805 -0.832773
000110 c6 2a 87 bf cc 52 9f bf 54 ec 10 3d 96 5c 87 bf
       -1.0559928 -1.2447143 0.03538163 -1.057513
000120 e5 8c 28 bd 80 4c 7a bf 75 76 84 bf a3 f8 67 3d
       -0.041149992 -0.9777298 -1.034865 0.056633603
000130 51 ce bb bf 9b 48 45 3d 52 e9 38 bf 2f 0a 84 bf
       -1.4672338 0.048164945 -0.7223102 -1.0315608
000140 9d 01 67 be 92 95 49 3d 29 1e 94 bf 63 43 31 3d
       -0.22559209 0.049214907 -1.1571704 0.043277156
000150 77 6f f9 3c 18 09 b5 3d 70 fd 36 3d c0 f8 6a 3e
       0.030448658 0.08839625 0.04467529 0.22946453
000160 84 08 a8 bf 6e 7f 8e bf f1 a8 87 bd f2 b0 98 bf
       -1.3127599 -1.1132638 -0.0662402 -1.1929
000170 2b 21 6d bf b5 a6 57 bd 76 b9 45 bf 75 dc 14 3d
       -0.92628735 -0.05264922 -0.77236116 0.036343057
000180 43 c7 cb 3d 39 1e 58 3d 60 ad 8f 3d 83 bc 9e bf
       0.099501155 0.052763198 0.070154905 -1.2401279
000190 57 b5 43 3d fc 85 8e bf 48 8d 40 3d 4a fc a0 bf
       0.04778036 -1.1134639 0.047009736 -1.2576993
0001a0 f6 72 2d 3d 92 21 22 3d 7c d5 af bf 15 f1 46 bf
       0.042345963 0.039582796 -1.3737025 -0.7771161
0001b0 8b 28 80 3d 26 23 49 bf 0e a5 d5 3d 88 e3 36 bf
       0.06257733 -0.7856926 0.10431872 -0.71440935
0001c0 5d cf 9d bf 2a 2f 7a 3d a8 26 31 3e 86 07 1b bf
       -1.2328907 0.061080135 0.17299902 -0.60558355
0001d0 4d 9a 83 3e 4c bd 69 bf d4 d0 87 3d 45 36 36 3d
       0.2570366 -0.9130447 0.06631628 0.04448535
0001e0 4a 07 a2 3d 58 44 56 3d 56 d8 91 3d 62 61 8a bf
       0.079115465 0.05231127 0.07121341 -1.0810969
0001f0 3b 5f a6 bf 93 8f 7e bf 1c 48 85 bd 2b 1a 31 3e
       -1.2997812 -0.99437827 -0.065078944 0.17295139
