checkpoint_actor.pth (torch_old, 262854 bytes, 6 tensors)

fc1.weight f4 [400, 33]
00000000: 30bd 91bd 42d0 143e 70c8 493e c2a0 15be
00000010: 9c1d 983d f213 6d3f d49e 4f3e 7f2f a73b
00000020: 8e4c 6e3d dff1 0c3d 4972 3c3b f3a5 e13d
00000030: 3b15 bb3d 9f4c d13d b7c7 bc3d bbc1 143e
00000040: b125 993e 23a4 39bd c203 b33d 2667 a63e
00000050: 1eb9 5cbd 5ffc 703e e864 c13d 5add 0fbd
00000060: ce2f 0c3e b377 983e 9b37 2fbd 1d13 753e
00000070: d348 b33d da82 a0bc d4dc 97be 94ca 04bd
00000080: f8ab 44be e7a8 323e a31b 5d3e 808d 2a3c
00000090: 5e71 8abe e3fb eb3e f116 c3bd 16da c8bd
000000a0: 25f7 86bd dd5c 3e3c 3a5c 95bd 2dca 203d
000000b0: 25fe b63a 6a6e 593c ea04 b53d 4e9a c83d
000000c0: a62b 183e fccb 66bf 4b03 ac3e 83e3 4cbe
000000d0: 407c b1be 0c15 353d 8364 a7bc 37b6 a9bd
000000e0: 4b2f 8e3d e7db 06be 2a6e 373e f5cb 67be
000000f0: 3ece 89bd d9d8 2bbe c043 60bc 7b69 cc3c
00000100: 5345 0c3d 322b ccbd d0e8 293e 9ecf f13d
00000110: e1b2 eb3d 0439 0cbf 9d36 cbbd dcd4 883e
00000120: fa75 263e b456 6fbe 41bc e7bd c00e 0a3c
00000130: eccd eb3b 4182 e93c e1a0 4a3d 3127 8e3d
00000140: 9b39 f8bc 6536 6d3e 2578 a63e ddb9 2abf
00000150: 2d82 8dbe ee5e 083f d26e 923d f0bd 1bbe
00000160: b3f4 a6bc e8bc ce3c 9714 ef3c 3cb0 803d
00000170: c7d9 84bd d2ed 48bc 97fd 38be e357 22bd
00000180: d52b 45bd 8268 ed3c 6e14 02bf d33e 92bd
00000190: e771 67bb 8a20 8cbe bcbc 743e 7ff7 96bc
000001a0: fdd7 873d 6848 9cbd 807f 8d3d 94c9 45bc
000001b0: 09f4 023e 9b20 ae3d bf67 52bc d316 a3bb
000001c0: a041 8b3d 02e1 153d 32ba d33d 6e3f 803e
000001d0: 0358 b1be 53cf 673d 7b3f 853e 14fc 033d
000001e0: 35a7 4bbc a6be eabd 146a 2b3c dc49 8a3d
000001f0: e057 9ebd 1750 b43b 3eb2 a73c b2a8 ae3d
00000200: 702e e6bb 1928 063d 0ce6 3e3c fbe2 a6bf
00000210: 4ef3 7d3c 80ec aabe c6b5 b73c 8a8a ec3d
00000220: abbb 483e f76b 753d 81a3 ffbd 8e72 25bb
00000230: b8db 103d 94b4 c8bd 7dbd ab3d b1c0 fb3c
00000240: ecfa d0bd 958b 653d 0fa9 c23e 1961 13be
00000250: 6913 e9bc de9d a9be df94 533e 3bb5 c43d
00000260: 78aa 26bc 1446 34be 6452 cebd c7b1 e83c
00000270: 7d5e 0d3e b44a 07be c158 c4bd d64c 07bd
00000280: 509b 5e3e 6097 05bc f949 003c d8a2 223c
00000290: 7a86 18bf d1b9 033e e768 9c3e ed8b c83b
000002a0: d0f8 57bd a984 b43d 59bc ae3d ed28 1bbf
000002b0: f206 e83d ed89 6c3c 687f 85bd 8e97 383d
000002c0: 8a3d 013e d645 123d 4b35 ba3d 952c 35be
000002d0: 2424 cbbd f4c2 0abe 221d 083f fdb2 01bf
000002e0: d3e5 343e f020 c83d 1600 a43b 3b8a 203d
000002f0: be9a 423d 5678 19bd e6fb 4b3d b899 50bd
00000300: 0147 4f3d 0e47 53be 5895 d7bb 62f5 17be
00000310: 0264 c93c 18a1 88bf 5acb fd3d a4df 01be
00000320: 398a 6d3d a9ca 503e ef34 3f3d 02a3 84be
00000330: 1923 61bd ea57 563c 2bea 3b3e f6be 563c
00000340: c4cb d6bd 6232 e93d 8d85 9e3d 2ce3 87be
00000350: b8e7 933d 8bb1 a4ba 33e4 03be 3e4f f53d
00000360: 349b 993e c740 abbe 33ab 79bd 8079 973d
00000370: 390b 793d 400a adbd 376b 853c 9517 e13d
00000380: 3a1e 3f3e 65ac 2c3d 8deb 653c 9814 ecbb
00000390: aad1 a3bb 4788 a2bc 63e5 8e3f 95cc b13e
000003a0: 4719 863c 14a4 ebbc ff97 1ebd 7841 2dbe
000003b0: da6d 9fbf 1782 2c3e 35c4 113e cb1d b13e
000003c0: e129 d3bc de07 85bd f5c0 063d b83c bcbd
000003d0: ef90 c53b 8f51 923e 5cf0 6e3d 69b4 403e
000003e0: 4958 2abe 28a9 323f cf76 f1be 4a75 35be
000003f0: ce7b 3f3d 994e 4a3d 62e2 1cbe c296 003c
-0.07116163 0.14532569 0.19705367 -0.14612105 0.074275225 0.9260856 0.20275432 0.0051020975
0.058178477 0.034410354 0.0028754643 0.110179804 0.09134909 0.102196924 0.0921778 0.14527027
0.2991157 -0.04532255 0.08740951 0.3250057 -0.05388748 0.23533772 0.094430745 -0.035123207
0.13690111 0.29778823 -0.04277764 0.23933072 0.087541245 -0.019593645 -0.29660666 -0.032419756
-0.19206226 0.17447244 0.21592574 0.010409713 -0.27039617 0.46090612 -0.0952586 -0.098072216
-0.06590108 0.01161882 -0.072929814 0.03925531 0.0013961239 0.013270954 0.08838828 0.09795056
0.148604 -0.90155005 0.33596262 -0.20008664 -0.34665108 0.044209525 -0.02043367 -0.08286708
0.06942614 -0.13169824 0.17913118 -0.22636397 -0.06728791 -0.1678194 -0.013688028 0.02495264
0.0342458 -0.09969176 0.16592717 0.11807178 0.11508728 -0.547745 -0.09922526 0.267249
0.16255942 -0.23372918 -0.113152035 0.008426368 0.0071961787 0.028504493 0.049469832 0.06941069
-0.030300906 0.23165281 0.32513538 -0.66689855 -0.2763838 0.5326985 0.071500435 -0.15209174
-0.020380354 0.025236562 0.029184623 0.06283614 -0.0648685 -0.012263732 -0.18065487 -0.039634597
-0.048137505 0.028980497 -0.50812423 -0.07140889 -0.0035315694 -0.27368575 0.23900121 -0.018428562
0.06632993 -0.07630998 0.06909084 -0.012071986 0.12788405 0.08502313 -0.012842118 -0.004977086
0.06799626 0.036591537 0.10338248 0.25048393 -0.3463746 0.056594204 0.26024994 0.032222822
-0.012430002 -0.114621446 0.010462303 0.06752369 -0.077316046 0.0055027115 0.020470735 0.0852827
-0.0070245788 0.032753084 0.011651527 -1.3038019 0.015499903 -0.3338356 0.022425544 0.11549862
0.1960284 0.059917416 -0.12482358 -0.0025245282 0.03536579 -0.098000675 0.083857514 0.03073153
-0.102041095 0.05604132 0.38019606 -0.14392509 -0.028451638 -0.33128256 0.20662259 0.096048795
-0.010172479 -0.17604858 -0.100743085 0.028405083 0.13805576 -0.1321209 -0.09587241 -0.03303226
0.21738935 -0.008153766 0.007830136 0.00992652 -0.59580195 0.12863852 0.30548784 0.006120196
-0.05272752 0.088143654 0.08532018 -0.6060932 0.1132945 0.014437181 -0.065184414 0.04506641
0.12621132 0.035711132 0.09092196 -0.17692788 -0.09919003 -0.13550931 0.53169453 -0.5066374
0.17665796 0.09771907 0.005004893 0.039194327 0.047510855 -0.037468277 0.049800776 -0.050927848
0.050604824 -0.20632574 -0.0065790825 -0.148397 0.02458382 -1.0674162 0.12392302 -0.12682968
0.057993148 0.20389809 0.04668134 -0.25905615 -0.054965112 0.013082484 0.18351047 0.013107052
-0.10488084 0.11386563 0.077403165 -0.26540506 0.07221931 -0.0012565119 -0.1288002 0.11978005
0.30001223 -0.3344786 -0.060954284 0.07396221 0.06080172 -0.08449221 0.016286476 0.10990826
0.18663874 0.042156596 0.01403321 -0.0072046034 -0.004999359 -0.019840373 1.1163753 0.34726396
0.016369475 -0.028764762 -0.038719174 -0.16919506 -1.2455399 0.168465 0.14235003 0.34593043
-0.025776805 -0.06495641 0.032898862 -0.09191269 0.0060292403 0.2857785 0.058334693 0.18818821
-0.1663524 0.6978936 -0.47160956 -0.17720523 0.04674893 0.049391363 -0.15320733 0.007848443

fc1.bias f4 [400]
00000000: efda 54be aeab 543e 3a0a a93d 6cd2 6c3d
00000010: 8ee9 cfbd e8c3 8f3c 32da debc 8b79 29bc
00000020: e220 c73c 16a9 f6bd ecf4 d4bd be40 a7be
00000030: 3ff8 2dbe 94b5 84be a22d 20bd ea76 923d
00000040: 176d 363d 2c84 a9be b967 aabe 20df 67be
00000050: 9420 4a3d e1cd 693e f59e 8fbe 164e 68bd
00000060: 9993 9ebd 5c87 b03d 315c a4bb a5a5 12be
00000070: d049 b3be 1e4d e63c e43c c63d 8fa8 493d
00000080: 8059 91bb 411f 3a3d 7d55 ca3a a160 953c
00000090: 9d15 99be 3dcc 14bc 4b1c 173d 0ba4 1fbe
000000a0: da85 51be 656f d03d f1c5 d0bd dd42 323e
000000b0: b62b 243c 7e7b 3bbe c318 2abe 54b0 6b3d
000000c0: 2927 a73e 560c 373c 6803 343e ea66 2cbd
000000d0: da16 913c 0c2f a03c f1c3 b33d 7200 bbb9
000000e0: c3fb 47be 776b 8abe d8b0 9e3d 5279 9cbc
000000f0: 5a06 36bd 7449 bcbd 42cb c4bd e924 1d3d
00000100: 579d 323e 1018 063d 6679 a6bc 4413 07bd
00000110: ac96 963d b9b4 54be 8ff1 90be 8f27 64be
00000120: 79cf bfbe 9b56 803e 1bc3 a63d fd0d 93bd
00000130: 540c 783e e944 4c3d 19b1 d63d d629 51be
00000140: f1a0 5fbe d4ee 463b 58cf ac3d e093 3a3d
00000150: 4e4a 383e e727 7cbe 9b9e 42bc e86b 3abe
00000160: 07ac f5bc 4161 e93d e728 f93d 5d90 83be
00000170: 8fa3 bfbe 5eb7 fd3d 1572 debd 8bae 92be
00000180: 8472 27be ee1d b33d 4ff0 e4bd a1e7 babd
00000190: 6793 e3bd aae8 0d3e 82e2 133e a068 17bd
000001a0: 9574 433e 5883 56be 05c7 883e 7970 93bd
000001b0: 2fab 2bbe fca0 233d b462 25be 8232 34be
000001c0: 45e8 0f3e 2128 17be e46b a3bd 120e 8abe
000001d0: c280 66bd 092c d8ba 3dc4 f2bd 8f31 973d
000001e0: dbca 24be 3a6a e9bd b4ee 673d 84f6 9f3d
000001f0: 7392 183e 1750 e03d 93d0 a43d aad0 c23d
00000200: b59c a53d e1d0 9fbe 9469 193e 1ca6 02be
00000210: c957 1c3e 3a74 bdbd bf58 c93d f57f 733d
00000220: f0fc 943c d972 9a3e aea9 16bd ba18 30be
00000230: 11f1 51be 4d07 a6bd 58d2 0cbe a5e0 603e
00000240: 9115 60be 3b0f a5be 2cfc b4bd 1444 08be
00000250: ebe0 1bbe d3f9 4d3c 9fab c7bd a5f4 c93c
00000260: f55b 59be ac34 e63c cc4f 913d d918 4cbe
00000270: aebc 24be aeab a1be ec78 38be 7bc3 5b3e
00000280: ef5c 9bbe bf30 d33d b141 8ebc 34b9 cbbd
00000290: 24c7 643e b8ee 8fbd 9c51 673d 4081 503c
000002a0: 20d2 46bd 425e a6bd 4f08 57be 215e 98bd
000002b0: 2ca8 4bbe 1240 d0bd 7733 963d 149c 31bd
000002c0: 1838 073e 8386 963d 8a7a 9d3c 2c30 973d
000002d0: 6013 3e3e dfe3 60bd d5b9 09bd 0e76 c9bc
000002e0: 0f38 b53d 924b b43c 023f 6cbe d89e 133d
000002f0: b5d2 7bbe 8973 63be eed3 b13d 1507 89be
00000300: 90f4 a23d 9e4f 133e 1314 57be 572e bc3c
00000310: d627 63be 4d92 dfbd b862 47be 5de1 c13d
00000320: d0f1 12bf df95 54be 26a8 1abe 1ac5 0a3e
00000330: 7154 06be ba7b 3dbd 2423 1cbd bd05 363d
00000340: 814f 6cbe 151c 273e 4a5f 1f3d 8418 19bd
00000350: f1a6 ddbb e46f 75bd 60dd d83c 5eb3 94bd
00000360: 5b7e 183e 276a 4abe f5dd 1abc 77e3 bd3d
00000370: d901 b3be ca7e 07bd c114 0dbd fb7d 38bd
00000380: 0d1e 1dbd 0961 e1bd 2149 cdbe 5cdc cabd
00000390: 820a 57bd f466 8cbd 44e7 60be ea76 c03c
000003a0: ae5b 6bbe ba8b 73be 9573 523e 8742 813e
000003b0: 6ccb dc3d 43c4 2c3e 1996 78bc 00f1 dbbd
000003c0: 78a2 18be 76f9 02be 42a7 9a3c 754b b8bd
000003d0: 9d3d 8abb 0d72 17be 1806 563e 1c4c f23d
000003e0: 0d65 88bd 6f41 cb3d 692d dabd a386 c1bd
000003f0: 3b0c 8fbe 471b ebbe 7bb1 583d fa29 22be
-0.20786642 0.20768616 0.08253904 0.05781786 -0.10151969 0.01754947 -0.027203653 -0.0103439195
0.024307672 -0.12043969 -0.10398278 -0.32666582 -0.1698923 -0.25919783 -0.03910602 0.07151587
0.04453763 -0.33108652 -0.3328226 -0.22643709 0.049347475 0.22832443 -0.28050962 -0.056715094
-0.07742996 0.08619568 -0.005015873 -0.14321001 -0.35017252 0.028112944 0.09679583 0.049233016
-0.004435718 0.045439962 0.0015436854 0.018234553 -0.29899302 -0.009081897 0.036892217 -0.15589921
-0.20461217 0.10177497 -0.10194004 0.17408319 0.010020187 -0.18308827 -0.16611008 0.057541206
0.32647064 0.011172375 0.17579424 -0.042090334 0.017711092 0.019553684 0.08777607 -0.0003566775
-0.19529633 -0.27035114 0.07748574 -0.019100819 -0.04443965 -0.091936976 -0.09609081 0.03836528
0.17442833 0.03273779 -0.02032156 -0.032977358 0.07352957 -0.20772065 -0.28309295 -0.22280715
-0.37462977 0.25066075 0.08142682 -0.071804024 0.24223453 0.049870405 0.104829974 -0.20426115
-0.21838738 0.0030354755 0.08437985 0.04555118 0.17997095 -0.24624597 -0.011878635 -0.18205225
-0.029989256 0.11395503 0.12166005 -0.25696078 -0.37429473 0.1238849 -0.10861603 -0.2864879
-0.16352278 0.08745943 -0.11178648 -0.09126211 -0.11112099 0.13858286 0.14441875 -0.036965013
0.19087441 -0.20948541 0.2671434 -0.07199187 -0.1676452 0.03994845 -0.16150934 -0.17597392
0.14053448 -0.14761402 -0.07979563 -0.2696386 -0.056275137 -0.0016492616 -0.11853836 0.073824994
-0.16093008 -0.11397214 0.05662413 0.07810691 0.14899616 0.10952776 0.08047595 0.09512456
0.0808653 -0.3121405 0.14981681 -0.12758678 0.15267862 -0.09250684 0.0983138 0.0594482
0.018187016 0.30165747 -0.036782913 -0.17196932 -0.20502116 -0.08106861 -0.13752115 0.21960695
-0.21883227 -0.32238182 -0.088371605 -0.1330722 -0.15222518 0.01257177 -0.09749531 0.024652788
-0.21226485 0.028101288 0.07095298 -0.19931354 -0.160876 -0.31576294 -0.18014878 0.21461289
-0.3034434 0.10312032 -0.017365308 -0.09947434 0.22341591 -0.07027954 0.056474313 0.012726128
-0.048540235 -0.08123447 -0.20999263 -0.07439829 -0.19888371 -0.101684704 0.07334035 -0.04336174
0.13204992 0.07349875 0.01922347 0.07382235 0.18562078 -0.054904815 -0.03362449 -0.024592426
0.08848583 0.022008691 -0.2307091 0.036040157 -0.24592097 -0.22212042 0.086830005 -0.26763216
0.07956803 0.1438584 -0.21003751 0.022971315 -0.22183165 -0.109165765 -0.19471252 0.09466813
-0.57400227 -0.20760296 -0.15103206 0.13551751 -0.1311815 -0.046260573 -0.03811945 0.044439066
-0.23077203 0.16319306 0.038909234 -0.037376896 -0.0067642857 -0.05992116 0.026472747 -0.07260774
0.14891951 -0.19767056 -0.009452333 0.09271901 -0.34962347 -0.0330799 -0.03444362 -0.04504202
-0.038358737 -0.11004836 -0.40094855 -0.099053115 -0.052500255 -0.06855574 -0.21963221 0.023494203
-0.22984192 -0.2378377 0.20551904 0.2524607 0.10780987 0.16871743 -0.015172505 -0.107393265
-0.14905727 -0.12790474 0.018878583 -0.08998767 -0.0042187707 -0.147896 0.20900762 0.11830923
-0.06659899 0.0992459 -0.106531925 -0.09449508 -0.2793902 -0.45919248 0.052903634 -0.15836325

fc2.weight f4 [128, 400]
00000000: 924c e33d 8af9 fd3c 9efa ef3c 1e44 56bd
00000010: 9136 973e 8e84 5fbc c741 963e e225 243e
00000020: d93b c4be 5a24 ee3d b87b 9e3d 7b57 a93e
00000030: 8eb2 1abe 4fd0 bcbd cbf0 16be 7309 8d3d
00000040: 46ee 0b3e 067e 9cbe 8cd5 cf3e da60 2a3e
00000050: 68df 13be 778d 2fbe c842 94bd 797c e73c
00000060: 42ce 52bd 6524 4bbe 9ebb f9be 9e4c 2f3d
00000070: d9a8 07bf 2d45 803e 50a9 fe3e cca0 52bb
00000080: 1533 773d ee92 903c b84e 9a3e 19a3 1b3e
00000090: 4e8a b3be e4d8 c83c 9246 e73e b491 87ba
000000a0: a30e cabd 0e3b 063e 20b3 56be e96a 803d
000000b0: ff45 35bf c59c 293d b2dd cfbd 24c5 303e
000000c0: 16fd ee3d ffe7 963b 3814 833e 3f49 213d
000000d0: 1f80 b33e 6e70 9f3d 91f6 ca3d 3cda 1e3e
000000e0: 45c7 f53d 35d8 37be 209e 88be ac6a 0d3e
000000f0: 40f2 b8bd 2158 e03e 72fb 2abd ecfc 353c
00000100: 0afc 443e 591e 55be affa 203e e661 d8bc
00000110: 5dcf 38be a755 ab3e 6c9b fdbd 0324 44be
00000120: 53d1 a1bd 4648 493d eec7 dfbd 1abf 6d3e
00000130: 6c39 5abd 8286 ef3d daec 72be 41e3 b3bd
00000140: d2ee 893e c159 04be 5b32 a4bd d8e0 843e
00000150: 5947 62bc 9f30 b9ba 7f5a 4f3d 4429 e63c
00000160: f0a3 203e fd61 e1bd 318c 743e 72a2 33bb
00000170: fc44 bbbe bbd4 2fbd 349b 2a3c 3504 5fbe
00000180: 8c3a 41bd 7976 473a 792f fb3d cc7c ac3e
00000190: cbdf 8fbd 8fbb 8abd 4b17 073e aeda 5e3d
000001a0: 74ab 953e 6542 453e 7955 993e ba09 01be
000001b0: fade 45be 997c 2c3e 1325 4ebc 1c0f c63c
000001c0: 9eaf 08bc 5273 713e ab42 b33d a97e d33d
000001d0: d5b8 79bd 5b07 8f3e bc92 c63e cff4 98be
000001e0: df23 743e 0ad7 65be 93ce eebd fdea 6fbe
000001f0: 3868 82be b21f e53c 0496 073e 8b41 3bbe
00000200: f42f f53e 7a82 2cbe 5a2a 95bd 30c4 a83d
00000210: 42fa fb3d c230 4dbe e5b1 1f3e 52b5 b63d
00000220: 6d00 6ebe a442 dabd 2f10 ad3e 6b47 c23e
00000230: 045e a53d 1192 a23d 97cf 5dbe b2cd 7b3e
00000240: 631c 023e 8345 97bd 59a9 08be d16c d63d
00000250: 6f76 663e 3fec 693d b9cf 873d d536 dd3d
00000260: 83f8 dc3d 7c50 03be 2c63 a5bd b232 753e
00000270: e961 ce3c 59bc 69be d730 7ebe cdf0 673d
00000280: 5f38 e7be 9dde e9bc 7fbb 863e 4147 8a3e
00000290: 003e 463e 2776 c63e 9e47 68bd a574 a23d
000002a0: 976b 5e3e a672 7b3e 56ff 07be 7609 a1be
000002b0: f05f 05be c87f d7bc e62a 963c 4978 003e
000002c0: a94b f83d a6bb 10be 34be 003e fd59 83bc
000002d0: 1bcf 29be 53bc 8f3e 7e64 423e 033b 283e
000002e0: 3f20 cbbc 2db8 c33d b055 023e ce1b ebbc
000002f0: 2c37 143d f188 7bbe cae7 8bbd c946 9bbd
00000300: af2a 843e 993c 1e3d 8d03 3e3d 8591 9fbc
00000310: f4c6 4abe d662 f13d 579d 2fbc 2045 1e3d
00000320: 9ca1 70be 6f69 47be cf43 dd3d 8f2d 5e3d
00000330: 4b40 9b3e 667e 603d a010 2b3e 7bde 363e
00000340: f250 063f b2ae 3bbd a0db 893e 87b2 563d
00000350: 9d45 4c3e ccc5 92bc 4a9d a33d c03b db3d
00000360: 9e10 b1bd 40fe 55be 0bd5 7bbe 6e26 0a3e
00000370: c166 b9bc 460f 923d 2849 0e3e 2721 8b3e
00000380: 91a2 9b3d 9393 8dbe 5cbc 0b3e 812c 2dbe
00000390: 1530 793d c000 d1be 4d83 c73d e2f4 4b3c
000003a0: 4e8b d4bd a228 7abe f44c 03bc 8ff1 973c
000003b0: 6082 603e 3ceb 153b 67bb 82bd 934c b83e
000003c0: 147a 543d 1b19 143e 9fea 503e 0580 333e
000003d0: 3641 22bd dad3 87be edea 6bbd e303 dabc
000003e0: 439c 183e a589 a6bd 35bc 20be 771d cabe
000003f0: 0ea3 02bf 8d91 87be 31d6 fb39 9f34 123e
0.11098589 0.031002779 0.029294308 -0.052311055 0.29533818 -0.013642443 0.2934706 0.16030076
-0.3832691 0.11628027 0.07738441 0.33074555 -0.15107176 -0.09219419 -0.14740293 0.06886568
0.13665113 -0.30564898 0.4059261 0.16638508 -0.14440691 -0.17143808 -0.072393 0.028257595
-0.051466234 -0.19838102 -0.48775953 0.042797677 -0.52992016 0.25052777 0.4973855 -0.00321393
0.06035145 0.017648187 0.30138183 0.15198936 -0.35066456 0.024517484 0.45171028 -0.0010343106
-0.09866073 0.13108465 -0.20966768 0.062703915 -0.7080993 0.041409273 -0.10149707 0.17262703
0.11669366 0.004605293 0.25601363 0.039376494 0.35058686 0.07785116 0.0991031 0.15512937
0.12000898 -0.1795357 -0.2668314 0.13810223 -0.090305805 0.43817237 -0.041743703 0.011107665
0.1923677 -0.20812358 0.15720628 -0.02641387 -0.18047853 0.33463785 -0.1238316 -0.19154362
-0.079012536 0.04914119 -0.109268054 0.2321743 -0.053277418 0.11695577 -0.23723164 -0.087835796
0.26940018 -0.12924863 -0.08017417 0.25952792 -0.013810956 -0.001412887 0.050623413 0.028095849
0.15687537 -0.11005018 0.23881604 -0.0027410057 -0.36576068 -0.042927485 0.01041298 -0.21778949
-0.047174975 0.00076089014 0.12264914 0.33688962 -0.07025107 -0.06774055 0.1319248 0.054407768
0.2923237 0.19263609 0.29948023 -0.12601367 -0.1932334 0.16844405 -0.012582081 0.024177127
-0.008342652 0.23579147 0.0875295 0.10326893 -0.060967285 0.279353 0.38783824 -0.29874274
0.23841809 -0.22445312 -0.11660495 -0.23429485 -0.25470138 0.027969215 0.1324082 -0.18286721
0.47888148 -0.16846648 -0.072834685 0.08240545 0.12303592 -0.20038131 0.15595205 0.08921303
-0.2324235 -0.10657242 0.3380141 0.37945113 0.08074573 0.07938016 -0.2166122 0.24590185
0.12706141 -0.07386305 -0.13345851 0.10469974 0.22506116 0.057110067 0.06631417 0.10801474
0.10789587 -0.12823671 -0.08075556 0.2394512 0.025193172 -0.22825755 -0.24823318 0.05662613
-0.45160195 -0.028548533 0.26314923 0.27007487 0.19359589 0.38762018 -0.056708924 0.079324044
0.2172073 0.24555454 -0.13280997 -0.3145253 -0.13024879 -0.026306048 0.018331002 0.12545885
0.12123806 -0.14134082 0.12572557 -0.01603412 -0.1658291 0.28073367 0.18983647 0.16428761
-0.02479565 0.09556613 0.12728 -0.028699782 0.03618543 -0.24563958 -0.0683132 -0.075818606
0.25813815 0.03863201 0.046390105 -0.019478569 -0.19802457 0.117864296 -0.010718665 0.03864014
-0.23499149 -0.19473813 0.10803949 0.054242667 0.3032249 0.054808043 0.1670556 0.17858307
0.5246726 -0.0458209 0.26925373 0.05241635 0.1994843 -0.017916583 0.07988985 0.10704756
-0.086457476 -0.2089777 -0.24592988 0.13491222 -0.022632005 0.071318194 0.13895094 0.2717373
0.075993665 -0.27651653 0.13646072 -0.16911508 0.06083687 -0.40820885 0.097418405 0.012448521
-0.10378133 -0.24429563 -0.0080139525 0.018547801 0.21924734 0.0022875806 -0.063834004 0.35995921
0.051874235 0.14462702 0.20402001 0.17529304 -0.03961297 -0.26528817 -0.05759709 -0.026613181
0.14903359 -0.08131722 -0.15696795 -0.39475605 -0.5103005 -0.26478234 0.00048034036 0.14277886

fc2.bias f4 [128]
00000000: f38d 8dbd 30b9 933d 11f0 1ebb 1437 1a3e
00000010: c3a6 40bd 9247 b23c 9ac9 c73d 9ee3 c03d
00000020: 1829 9ebc 7107 153e 5b98 9a3d bd24 833d
00000030: cd66 0ebd 5c25 bd3d a77e 33be ff7e 833d
00000040: 7047 09be a80c dc3d bfc3 6c3d b21f 253d
00000050: 25a2 b23c 59ed 2e3d 9310 2cbd 0724 94bd
00000060: eecd 7c3d 9f78 81bd 42eb 88bd ab78 e23b
00000070: 72d9 b5bd c995 2dbe e667 db3d cb37 483d
00000080: d16a 0a3e ac52 90bd c506 afbd 3ccf 833a
00000090: 8675 07be c076 09be daab 11bd 98b0 d03c
000000a0: f288 d0bd 7a7f b3ba 4531 0fbd 16f3 633e
000000b0: 07fb 1f3d 701a bdbd e465 cd3d eed1 d33d
000000c0: 40d8 9f3d c561 b3bd 9b35 853e 9e11 4f3d
000000d0: 5ee0 b9bd 8bc1 d6bd 496e 20be 445a a83c
000000e0: 7c49 143d c453 96bd 46da 1bbd 7e45 63bc
000000f0: 93a5 d4bb 84f9 783d a761 893b a062 47bd
00000100: 2869 b9bd 2ff6 bfbd 1e68 ee3d c01d b03d
00000110: 3fe9 88bc a6a2 9a3c 5519 9fbd 183c cabd
00000120: 5048 8d3c 9734 973d 2498 473c b713 c23d
00000130: 888f 8abd ab57 8ebd e25a 8abd 9fca de3c
00000140: e97a 473c 3041 29bc 36e5 9dbc 0582 203e
00000150: 3cca f0bc 43b0 e83c bc37 293d 0abb 143e
00000160: 0603 49be a2d8 24bd 82c6 16bd e05a 07be
00000170: 9ed8 b13d ef68 0dbe ffdc 18be 8a1b f73b
00000180: 7703 02be 4acb aebc 0a3d 90bc dd56 84bd
00000190: 6238 1bbd 11b9 e73c afc6 76bd c09a 9fbd
000001a0: e9fc c6ba 2073 333e 3366 34bd 1142 5bbc
000001b0: dc02 513d 29f1 1c3e f1d7 bd3c 9047 4e3d
000001c0: ee5d 023c b60e 41bd f23a 06bc 6069 0bbd
000001d0: 7f04 e03d 3539 3d3e e4fc 463d 9e8d 3bbd
000001e0: cdd1 f0bb 35d6 eebd ade5 303d 060c 20bc
000001f0: f5d4 d03d 96d2 623c 1890 b1bd d5dc aabd
-0.0691184 0.07213056 -0.0024251977 0.15060073 -0.047034036 0.021762643 0.09755249 0.094184145
-0.019306704 0.1455362 0.07548591 0.06403492 -0.034766007 0.09235641 -0.17528783 0.06420707
-0.13406157 0.107446015 0.057803866 0.04031343 0.021805832 0.04270682 -0.042007994 -0.07233434
0.061719827 -0.06321835 -0.06685497 0.0069113574 -0.08879365 -0.1695167 0.107131764 0.048881333
0.1351731 -0.070470184 -0.08546213 0.0010056267 -0.13228425 -0.13424206 -0.03556428 0.025474831
-0.1018237 -0.0013694607 -0.034959096 0.22260699 0.039057758 -0.09233558 0.100292 0.10342775
0.07804918 -0.087588824 0.2601746 0.05055391 -0.09075998 -0.10486134 -0.1566707 0.020550855
0.036202893 -0.07340196 -0.03804996 -0.013871549 -0.0064894645 0.06078483 0.0041925493 -0.04867804
-0.0905326 -0.09373128 0.116409525 0.08599424 -0.016712783 0.018876385 -0.077685036 -0.09874743
0.017246395 0.073830776 0.012182269 0.094764166 -0.06765658 -0.06950315 -0.06755616 0.027196227
0.0121753 -0.010330483 -0.019274335 0.15674599 -0.029393308 0.02840436 0.041312918 0.14524475
-0.1963006 -0.04024566 -0.036810406 -0.1321826 0.086838946 -0.1380956 -0.14928053 0.0075411247
-0.12696634 -0.02133717 -0.01760723 -0.0646188 -0.037895568 0.028286489 -0.060248073 -0.07793188
-0.0015181574 0.17524385 -0.044042777 -0.013382451 0.051028118 0.1532637 0.023174258 0.050361216
0.007956965 -0.04713317 -0.008192765 -0.03403604 0.109383576 0.18478854 0.04858102 -0.045789354
-0.007349229 -0.116619505 0.043187786 -0.009768492 0.10196868 0.013844153 -0.08670062 -0.083429016

fc3.weight f4 [4, 128]
00000000: 7455 3e3f 85d2 04be 1ab1 6e3f db4e 15bf
00000010: cc83 63bf aee0 033f 76a2 3ebe 720b e5be
00000020: 74bc f5bc ddf0 eb3f 222d 9b3e b064 03be
00000030: 27d1 5ebf 0745 b9bd da6e cf3f 24c1 f3bd
00000040: 3e01 b43f 33a1 1ebf 36cb 7bbe 6f36 ffbd
00000050: 60d8 a9be 5451 9fbe 2094 afbd 0de2 843f
00000060: 214c e23e cda9 25bf e2fa c0be a728 8c3f
00000070: d10d cd3f 43e9 d63f b763 1dbf 250e 0f3d
00000080: 4688 f0be 43fc f3bc d344 ac3e a1f1 bebf
00000090: 3461 d63f fecb 1c3f ebf8 cb3d 3cef 6abf
000000a0: 3a59 52bf 1ca5 5b3f 75a7 cebd b1f1 433d
000000b0: d87a 84bf b6eb ecbf aece 243f bbf9 123f
000000c0: 991f b33f 7053 843e 9ce9 133f 542a 1f3e
000000d0: 6a8a d53f d46e fc3e d6a4 d63e 9451 b8bf
000000e0: 0e95 033f 319e a73f 6366 313f 6000 0cbf
000000f0: d272 c1bf 3467 15bf ea44 90be c0ae 173f
00000100: f3dd f0bd 4b56 f9be f82a c0be 171b e0bc
00000110: 43ae ff3d 3389 5b3e 5076 01c0 5e72 a13f
00000120: 096a 8c3e 3efc af3e 632f 9a3e e760 e13f
00000130: 3b99 94bf 2604 8bbd f12c 59bf c0a1 18bd
00000140: 39cc f1be 367c 303d 6f78 95be 9302 bd3f
00000150: 82cb 8a3f a864 9f3d d538 ef3e 1e63 fb3e
00000160: ff3e f53f 3474 cf3f 23e8 32bf e7fe 71be
00000170: f2c8 4fbe 92d4 4540 221d 00bf bda6 8e3d
00000180: ab5d 56bf b802 933f 761a dabf b797 39bf
00000190: 1516 00bd 0311 d4be 20ed 69bf c314 ae3f
000001a0: 1fa3 1cbf 6708 fcbe f1a0 143b 2491 cfbd
000001b0: 8d58 46be a16f 2dbf 2661 953e b64d b93e
000001c0: af15 2fbf 0b38 6cbe 8be2 b7be c233 34bf
000001d0: 0ed0 20be 3242 0cbf 35a5 bf3d d660 93be
000001e0: 5937 04bf 5f09 8cbe 004c 0dbe 2a4b 373f
000001f0: fc69 8a3e 96bc 613f 6b6f 213e ef7d df3f
00000200: 449e d73d e68a 2a3e 9bd9 3a3f b233 d93d
00000210: b268 a1bf 9604 a63f 5e9c bb3f 78c2 1a3e
00000220: 6aa3 7bbf bc86 193f 0fb7 483f 999d 46be
00000230: bbda ee3e 2228 93bf 414e 7f3e c734 60bd
00000240: 06e8 df3d d147 b9bf 9363 ddbc ef55 f53e
00000250: 00c8 d1be c819 0c3d 5f71 11be 7518 4a3c
00000260: ca56 abbe f4d6 15c0 d259 6fbf c56d 863e
00000270: 65e7 5a3c c37d a3be 4a0c e4bf 78de 3b3f
00000280: 1fb9 5bbe 788f 81be 9fe8 3a3b cf8c d6bf
00000290: 920d c83d 8a4b 36be f9e3 cabd 578a 943f
000002a0: 76ec 14bf 61c0 2dbe fda5 a9be 5c2b b43d
000002b0: 4ead dd3e f384 a43f 6ff4 93bf c12f 423f
000002c0: 8d38 ee3e d216 2d3f a516 4e3f 2fb1 fb3d
000002d0: ad36 003f 2ed2 c13e 3350 febf 19af 4f3f
000002e0: 35a7 2b3f 6fa0 63bf ffc8 c6be 241c cabd
000002f0: 6fbc 113f 2e9d 54bc 6402 d73e dcae 21bf
00000300: e64c e13c 9f77 a5bf 81c7 55bf f410 383f
00000310: 083c 8fbf 1cb2 033e b3e4 16bf 689f 223f
00000320: b6cb 9bbd 1365 423f dcb1 ecbc 9a52 c5bd
00000330: c8cb a6be 2ad0 953f 839e ac3d a016 56bf
00000340: 6e06 32bf 80c0 603e 3a62 e5bf 5c08 e2be
00000350: 22d8 35bf 3131 21be 027b 36bf 9fc8 a9be
00000360: 67ff c33e ab8d 1fbf f78b 1d3e b58b adbe
00000370: 68ed 653d 54ee cfbf 574b 95bd 9119 ef3e
00000380: 2a63 f0bf 9775 44bf ee69 2a3f bb95 223f
00000390: 13ed 04bf a0f8 693f d79c d73e c647 a63f
000003a0: 41b2 3f3f 65e3 5d3f d266 c7be 3c3b 123e
000003b0: 6b3e 013e a2b4 8b3f e903 8a3e 9020 bd3c
000003c0: 52cd 273e 7667 4ebe f246 e3bd 1708 ab3e
000003d0: a8d5 3ebb 6051 71bd d1bf fa3e fdf3 253e
000003e0: 1d41 b3bf f976 823f e717 a2bf 090d 56be
000003f0: ad04 38be 97ff e83e c9fa cebc 6a66 abbf
0.7434914 -0.12970932 0.93238986 -0.5832345 -0.8887298 0.5151471 -0.18616661 -0.44735295
-0.029997088 1.8432881 0.3030787 -0.12831378 -0.8703789 -0.09046369 1.6205704 -0.11902073
1.4062879 -0.6196472 -0.24589238 -0.12461554 -0.33172894 -0.31116736 -0.085731745 1.0381485
0.44198707 -0.6471222 -0.37691408 1.0949906 1.6019841 1.6789936 -0.6148028 0.0349256
-0.46978968 -0.029783374 0.3364626 -1.4917489 1.6748414 0.6124877 0.09959587 -0.9177129
-0.821674 0.8579881 -0.10090534 0.047837917 -1.0349989 -1.8509433 0.6437787 0.5741231
1.3994018 0.25844908 0.57778335 0.1554349 1.6682866 0.49303305 0.41922635 -1.4399896
0.51399314 1.3095151 0.69296855 -0.5468807 -1.5113165 -0.583606 -0.28177577 0.5925102
-0.117610835 -0.4869865 -0.37532783 -0.027356667 0.1248441 0.21439056 -2.0228462 1.2613027
0.27424648 0.34372133 0.30114278 1.7607697 -1.1609262 -0.067879006 -0.848342 -0.03726363
-0.47226122 0.043087207 -0.29193446 1.476641 1.0843356 0.077828705 0.46723047 0.49099058
1.915985 1.6207337 -0.6988546 -0.23632394 -0.20291498 3.0910993 -0.50044453 0.069653966
-0.83736676 1.1485205 -1.7039325 -0.72497123 -0.03127106 -0.4141923 -0.9137745 1.3600086
-0.61186403 -0.4922516 0.0022678936 -0.10135105 -0.19369717 -0.6774846 0.2917568 0.361921
-0.6839246 -0.23068254 -0.35915026 -0.70391476 -0.15704367 -0.54788506 0.093576826 -0.28784817
-0.51646954 -0.273509 -0.13798523 0.71599066 0.27033985 0.88178384 0.15765159 1.7460307
0.10528234 0.16654548 0.7298829 0.10605563 -1.2610075 1.297015 1.4657094 0.15113246
-0.98296225 0.59971213 0.78404325 -0.19396056 0.46651253 -1.1496623 0.24932195 -0.054737832
0.10932927 -1.4475042 -0.02702502 0.47917125 -0.409729 0.034204274 -0.14203404 0.012334933
-0.33464652 -2.3412447 -0.9349643 0.26255623 0.013360833 -0.31931886 -1.781625 0.73386335
-0.21457337 -0.2530477 0.002852 -1.6761721 0.09768213 -0.17802253 -0.099067636 1.1604718
-0.5817331 -0.16967918 -0.33134452 0.08797333 0.43296283 1.2853073 -1.155897 0.75854117
0.4652752 0.67612946 0.805033 0.122896545 0.5008343 0.37855667 -1.9868225 0.8112655
0.6705201 -0.8891668 -0.38825223 -0.09868649 0.5692815 -0.012976928 0.4199401 -0.6315744
0.027502488 -1.292713 -0.83507544 0.7190087 -1.1190195 0.12860912 -0.5894272 0.63524485
-0.07607214 0.75935477 -0.028893404 -0.096348956 -0.32577348 1.1704152 0.08428671 -0.83628273
-0.6954106 0.21948433 -1.7920601 -0.44147003 -0.7103292 -0.15741421 -0.71281445 -0.33160874
0.38280794 -0.62325543 0.15385424 -0.3389565 0.05613461 -1.6244607 -0.072897606 0.46699193
-1.8780262 -0.7674193 0.66567886 0.6350972 -0.51924247 0.91394997 0.42111847 1.2990654
0.7488137 0.866751 -0.38945633 0.14280409 0.12621467 1.09145 0.26956108 0.023086816
0.16386917 -0.20156655 -0.11097516 0.3340461 -0.0029119048 -0.058915496 0.4897447 0.16206355
-1.4004246 1.0192558 -1.2663544 -0.2090341 -0.17970534 0.455075 -0.025266068 -1.3390629

fc3.bias f4 [4]
00000000: 759f 67be b074 063d 1a89 843d 7d64 27be
-0.22619422 0.032826126 0.064714625 -0.16346927
