td3_checkpoint_actor.pth (torch_old, 541501 bytes, 6 tensors)

fc1.weight f4 [400, 33]
00000000: 17d8 2e3d f59e db3d 9ef5 d8bd 897c 7a3e
00000010: ed92 dcbd bf0c 50be 85aa 9a3e 17ea 113e
00000020: acc8 6dbd 60f5 c1bc b88f 8dbd 4f1c 2cbd
00000030: c8e0 8dbd 7cf4 0d3e 2ac9 e9bd 0ad1 8c3e
00000040: 978b 823d 11c5 cb3d 1750 89be f3c1 223e
00000050: 38e1 5c3d 8072 bf3d 72d9 13be 912f edbb
00000060: 1a86 c8bd 0361 8d3d cf50 0d3d a7ca 8a3d
00000070: 0c44 43be 3818 b03d 650f adbc 7452 193e
00000080: 19a4 e93e 7035 023e f557 173e 6b5a 273c
00000090: 6661 b7bd 4685 983e 6b8e 1cbe de43 5f3e
000000a0: 584d 2ebe 83d2 063e e3e9 de3d ba7b 3e3d
000000b0: 0a31 4dbd de03 873d 0031 b03c 9168 12be
000000c0: 6736 253d 775e 233e 4d7b b23e 9c0d ccbd
000000d0: 751c 1abc 831a 43bc 5053 b93d 2de1 563e
000000e0: 0950 583d 426c 133d e6f0 14bd 8d6e f0bd
000000f0: f1d7 87bd 658a ef3c 7daa 1fbe ca9c 603c
00000100: 745a f33d 49ad 42be 5239 b03c 91fa 7abd
00000110: 358f 01be cdfa c73c b516 33be 7f72 d93d
00000120: f3be 3f3d 86a9 7e3b afe8 1a3e 9d32 73bd
00000130: 581b 0b3e 2719 e8b7 a04e 68bd b584 bebd
00000140: feae 153e 35ea be3d c6ec a4bd c8d9 2abe
00000150: 84f7 07bd 922a a2be 3944 3b3d a82b 683c
00000160: f72a c2bd 8c9a c4bd 23f5 34be 2d40 dfbd
00000170: d245 193e a0d1 2ebe d6b4 033e 44e0 2e3d
00000180: 7b80 c43d 6803 ee3d 87db ec3e 1bc6 203e
00000190: c948 663e 7374 be3d d046 253e f8bf 063e
000001a0: 749d e83c b8fc 973e 6460 12be eea5 47be
000001b0: 0218 1fbe 2a25 0b3e d2cf 023d 73c8 6d3c
000001c0: 31a3 28be c11c 353d 5ed1 d7bd 29ee 0bbe
000001d0: 4621 9d3d 9021 1dbe fc02 f53d 097b fdbd
000001e0: 0ed2 bdbd 2e2b ca3d 6459 5cbe d1c7 21be
000001f0: 5569 17be 82f1 833e be37 fb3d d433 8dbd
00000200: 5c4e 123d fa1b 42bd 2876 ffbc b8a1 9a3e
00000210: 7efc 7f3e a779 3fbe 83ec 853d a6f9 5d3d
00000220: 1054 12bd 1332 593e ed69 0b3e fd54 7c3b
00000230: 76b8 0f3e 9ab7 653e 48a6 91bb 696e 2cbe
00000240: 1aaf 87bc 7fe8 04be 6c7f 2dbe 94a2 a8bd
00000250: a32f bc3d bcc1 b6bd c3b8 a5be 6136 a53d
00000260: cdca 37bd 32a5 c7bd ef58 c23d 30d9 dc3d
00000270: 8428 373e 1d5e 353d ba85 3f3d 981e d83d
00000280: 867c 99bd 34c3 653d 09e3 403d 2cc7 03be
00000290: fd3b 9f3e a7c1 2cbe 6e43 17bd 88cf 80be
000002a0: 5c52 77bc 98e2 903d df7a 3f3d d1a0 2e3e
000002b0: abf3 12bd 7c32 5f3b baa5 ff3d ed8a 4abd
000002c0: f4a5 df3d 90f9 2abd 8cda 4a3d 95a5 19be
000002d0: e192 6fbe e8cf 31bd e1c6 a6be 0512 973e
000002e0: d4b3 59be 0d94 0f3e 995f bbbd 3aed 803c
000002f0: 5d30 12bd d589 ce3d 30c3 173e 9550 3ebc
00000300: 7349 89bd cd75 1dbe 3e78 8bbd 16ba c9bd
00000310: f4cf bd3d 83a3 16be 8592 fd3d 50b1 2dbe
00000320: 4d1e 1a3e c69b 9c3d 8a25 5cbe 9e66 1cbd
00000330: d353 f4bc 8de6 663d 4b99 fcbc 2d5b 293e
00000340: 6141 42be e62c b53d a8cd 17be f568 5fbe
00000350: 2fef 4bbe 0140 a7bd 7ccc 59be b3a6 08be
00000360: e585 bd3d e2b7 f03c 8b45 d93d dc1f d83d
00000370: 9447 cabd 66e2 943d b8a8 bbbd 96d1 1bbe
00000380: fb4a 1f3e e213 b8bd a852 963c 407a df3b
00000390: d27a f13d 6a07 b6bd 6d12 57be 9eb7 6d3e
000003a0: 39e8 42bd 26f0 ea3d 28ab 293e 5fdd 103e
000003b0: 3bef 42be 3d50 043e eb61 97bd 64e9 ff3d
000003c0: 57f7 293d b729 eb3d 95a2 103e f3af 3d3d
000003d0: 5a38 17bd 6f02 27be 30a0 3ebe 2d85 6ebd
000003e0: 3f95 0f3e 5572 5abe 103a d1bd 1450 203e
000003f0: 217a 473d d34a 1e3e dd2e c7bd 65d0 f9bd
0.042686548 0.10723678 -0.10593723 0.24461569 -0.10770211 -0.20317362 0.3020822 0.14249454
-0.058052704 -0.023676574 -0.06912178 -0.042019185 -0.06927639 0.13862795 -0.11415322 0.27503234
0.06374281 0.09949697 -0.26818916 0.15894298 0.053925723 0.09348011 -0.14438418 -0.0072383364
-0.09791203 0.06903269 0.034500893 0.06776934 -0.19068927 0.08598369 -0.021125505 0.1497286
0.4563301 0.12715697 0.14779647 0.010214428 -0.08954124 0.2978918 -0.15288703 0.21803233
-0.17021692 0.13166241 0.10884454 0.046504714 -0.050095595 0.065925345 0.02150774 -0.14297701
0.040335085 0.15954004 0.34859696 -0.09963533 -0.009406199 -0.011908176 0.09049094 0.20984335
0.052810702 0.035991915 -0.03636255 -0.11739836 -0.066329844 0.029240796 -0.1559238 0.013709256
0.11882487 -0.19011416 0.021511707 -0.061274115 -0.12652285 0.024411583 -0.17489131 0.106175415
0.046812963 0.0038858368 0.15127824 -0.05937444 0.1358465 -2.7668268e-05 -0.056715608 -0.093026556
0.14617535 0.09322015 -0.080529734 -0.1668464 -0.033195034 -0.31673104 0.04571936 0.014170565
-0.09480851 -0.0959979 -0.17671637 -0.109009124 0.1496804 -0.17072153 0.12861952 0.042694345
0.09594818 0.116217434 0.46261236 0.15700571 0.22488703 0.09299555 0.16140294 0.13159168
0.028395392 0.29684997 -0.14294583 -0.19496891 -0.15536502 0.13588396 0.031936474 0.014513123
-0.16468503 0.044216875 -0.105379805 -0.1366507 0.07672362 -0.15344834 0.1196346 -0.12376983
-0.092685804 0.09871517 -0.21518475 -0.1579888 -0.14786275 0.25770193 0.12266491 -0.06894651
0.03571926 -0.04738996 -0.031184271 0.30201507 0.24998662 -0.1869875 0.06539252 0.05419316
-0.0357247 0.21210508 0.13614626 0.0038502805 0.1403521 0.2243332 -0.004444871 -0.16838993
-0.016562987 -0.12979315 -0.16943139 -0.08234134 0.091887735 -0.08923671 -0.32367525 0.080670126
-0.04487114 -0.097483054 0.09489619 0.10783613 0.17886549 0.044279207 0.04675839 0.1055271
-0.07494454 0.056094363 0.047091518 -0.12868947 0.31100455 -0.16870748 -0.03692954 -0.25158334
-0.01509532 0.07074469 0.04674804 0.17053534 -0.03587691 0.003405719 0.12482782 -0.049448896
0.10920325 -0.041741908 0.04952483 -0.15004571 -0.23395874 -0.043411165 -0.32573608 0.29505935
-0.21260005 0.1402132 -0.09149093 0.015738118 -0.035690654 0.10084883 0.14820552 -0.011615892
-0.067034625 -0.15376969 -0.06810044 -0.09849946 0.092681795 -0.14710812 0.12381462 -0.1696217
0.15050621 0.07646899 -0.21498695 -0.0381838 -0.029825127 0.056372214 -0.030834815 0.16538687
-0.18970253 0.08846454 -0.14824545 -0.21817382 -0.1991546 -0.08166505 -0.21269411 -0.1334484
0.09254054 0.029384557 0.106089674 0.10552952 -0.09876934 0.072697446 -0.0916304 -0.1521667
0.15555947 -0.08988167 0.01834996 0.0068199933 0.11791004 -0.08888133 -0.21003123 0.23214576
-0.047584746 0.11471586 0.16569197 0.14146946 -0.19036572 0.12921233 -0.07391723 0.124956876
0.041495647 0.11482566 0.1412452 0.046310376 -0.036918975 -0.16309522 -0.18615794 -0.058232475
0.14021777 -0.21332677 -0.10216153 0.15655547 0.048700456 0.1545823 -0.09725735 -0.12197951

fc1.bias f4 [400]
00000000: 58d4 163e a261 15bd f132 d6bd 2ed6 353e
00000010: 9f7a 103e df4b 4cbc c85f 80bc 2799 82bc
00000020: 2924 023e 78c3 c8bd d0bf b23d e6ec b03c
00000030: ceec e8bd cae3 41bd e972 323d b688 96bd
00000040: 9785 60bd 01e4 e7bc c40c 07be f822 15bd
00000050: ebf3 293d aba2 183e d0e0 1b3e f118 183e
00000060: f9d8 a93d 3f5e 1b3e a91f f23d a01c 8c3c
00000070: e548 45bd 44b2 c93d 81c5 ee3d c0d9 5b3d
00000080: b776 403e cfde f83d 8652 273e ae93 f13b
00000090: 87b0 a53a 350e f23d d2dd 1c3e 57bc 5bbd
000000a0: a1ae 50bc 47e9 303e 0213 d3bd 7e05 203e
000000b0: 9edc 293e aa77 05be 231d 1d3e 8cfe 1a3e
000000c0: be29 aa3d 852a 6d3d e438 213e 9645 3f3e
000000d0: 83b6 97bd 2e3e 033e 4dfc 613e b09a 043e
000000e0: 2476 673e de33 9f3d d66d e5bd 5a63 9c3d
000000f0: a718 c03d 50e2 26bd fb21 fbbd aff5 513e
00000100: aa7b 023c a61d 293d 046c 833d 82a2 353e
00000110: 7500 433e e84e 0d3e bcb5 233e ed3f c93b
00000120: d974 013d 9384 6ebd a5a3 353e 4c63 013e
00000130: c000 443e f7c6 83bc 0d0c 743e 85f3 973d
00000140: 2833 d83c b281 f7bb 98b6 0c3d 83f7 013e
00000150: 23bb b73d dafe db3d a635 403d 882e 423e
00000160: de5c f03d 1653 403e a469 7b3c 5be8 94bc
00000170: 3509 453d 8768 e13d aef0 713d 3beb c0bd
00000180: b552 c23d de23 3c3e f8b4 9d3d 0656 483e
00000190: 4cfa 2cbe cff0 bf3d e445 d2bd 9014 d6bd
000001a0: 0d1d 0abd ac1c 7abc 7c08 033e f329 173e
000001b0: c5fc 2a3c 5ea3 663e 4bb2 09be 626b 83bc
000001c0: c8fb 3a3c 89da c23d 815a aebc 6829 febd
000001d0: 969d 4bbd 8e4e df3d 7249 f9bc 692e fe3d
000001e0: 8521 ee3c f64c f53c 9bba 77bd d8ad b13d
000001f0: f2b1 563e e769 2f3e c976 363c 50d1 e5bd
00000200: 9bfa 26be d9df 923b 7311 4d3e c6ae 38bd
00000210: 77f0 363e 1a2b 8f3d 6788 113e 136b cf3d
00000220: 38bf 843e c4c0 e03d e317 edbd 7d48 aebc
00000230: efef 2e3e f657 37be 0e00 1e3e 3be7 b83d
00000240: a356 05bd c8dc 373e 4116 20be 418a 253e
00000250: 7844 89bd 7a2f e8bc d1be ccbc d37e 073d
00000260: e053 11bd d0ba 6d3c a175 203d 9ba1 803c
00000270: e233 b8bd dcc5 473e 7737 dbbd 8f8a f1bd
00000280: 0b7f 133c dbe2 033c afb6 bbbb ff7c 23be
00000290: bb87 83bd 9e46 a2bc 43a9 683e 2cff 04be
000002a0: 6094 983d c10a 1abe ddd6 023e 06f0 ff3d
000002b0: ef57 4c3d ca68 a33d 4d4f 43bc e90d 99bd
000002c0: f627 3dbd 585f 203e 9c07 05be 5a8e 2f3e
000002d0: b200 5b3e 1787 5b3d f4fe 49bd 9248 b43d
000002e0: de2f 623e 5863 dc3d 40a4 d4bd 226d 9e3d
000002f0: bbf7 9a3e 5cde 9f3d 8169 e73d a12b 7e3e
00000300: 4250 ffbb 58cf 0abe 490c d03d ad49 94bd
00000310: aa99 33bd 464a 1b3e bb9f 223c 39d9 0f3e
00000320: ef34 2c3e abe9 e4bd 3b58 6e3e a024 22bd
00000330: fe48 8f3d af86 47bd b04a 193e 97ce 08be
00000340: 127d 5a3c 9f5d a73d 83bd 3f3e 2871 2dbc
00000350: f388 60bd 5a6a c5bd f5a6 873d 749d 323e
00000360: 995c 4a3d b301 94bd 148c 0abd 0361 4e3d
00000370: c3d1 a43d 0421 d73d aa81 e13d 0c1f c13d
00000380: 0ae4 583d 3b67 833d 6ca1 1f3e 2114 383e
00000390: 08b6 4bbe eb5a 71bd 2a2c 043e cacc 2c3e
000003a0: a889 dabd 65ec 78bb 4222 31be ec96 4bbb
000003b0: ee9e 2a3e 47a1 4fbd 131c 1f3e 880e fa3d
000003c0: 49c9 1ebe f7a7 243e e4fa 773d 0e31 e43d
000003d0: 002b 133e 94a0 d4bd 14e9 d2bd c923 643d
000003e0: b1bb 88bc 7082 c53d 74f2 0c3b 8a60 383e
000003f0: 4f99 0f3d f63c 543d a63e 47bc e162 3ebd
0.1472944 -0.036470063 -0.10458935 0.17757484 0.14109276 -0.012469261 -0.015670672 -0.01594217
0.12709107 -0.09802908 0.087279916 0.021597337 -0.11373292 -0.047336377 0.043566618 -0.07350294
-0.0548149 -0.028306963 -0.13188463 -0.036410302 0.041492384 0.14905803 0.15222478 0.14853264
0.082933374 0.15172671 0.11822445 0.017103493 -0.04816522 0.098484546 0.11658765 0.05367446
0.18795286 0.12151872 0.16340074 0.007372341 0.001264111 0.11819116 0.15318993 -0.05364641
-0.012736947 0.17276488 -0.1030636 0.15627095 0.16588065 -0.1303393 0.15343146 0.15136164
0.08308743 0.057901878 0.15744358 0.18678889 -0.07407858 0.12816688 0.22068901 0.12949634
0.22603661 0.07773565 -0.1120259 0.07636137 0.09379702 -0.040743172 -0.12262341 0.20503877
0.007964054 0.04128804 0.06417087 0.17737773 0.19043143 0.13799632 0.15987295 0.0061416538
0.031605575 -0.0582319 0.17738207 0.12635535 0.19140911 -0.016086085 0.23832722 0.074194945
0.02639158 -0.0075533027 0.034353822 0.12692074 0.0897124 0.107419685 0.046926163 0.18963063
0.11736463 0.18781695 0.015345011 -0.018177202 0.048104484 0.11006265 0.05906742 -0.09419867
0.09488431 0.18373057 0.07700533 0.19564065 -0.16892356 0.093721025 -0.10267237 -0.10453141
-0.03371911 -0.015265625 0.12796205 0.14762096 0.0104362415 0.22523257 -0.1344692 -0.016042415
0.011412568 0.095143385 -0.02128339 -0.12410241 -0.049710833 0.10903655 -0.03043053 0.12411196
0.029068718 0.029943924 -0.060480695 0.08675736 0.20966318 0.17130242 0.011136719 -0.11221564
-0.16306536 0.004482251 0.20026188 -0.045088552 0.17865168 0.06990643 0.1421219 0.10127845
0.25927138 0.10974267 -0.11576822 -0.0212748 0.17083715 -0.17904648 0.15429708 0.09028479
-0.032553326 0.17955315 -0.15633489 0.16166021 -0.067025125 -0.028342951 -0.024993332 0.033079933
-0.03548038 0.014509872 0.03917468 0.01570206 -0.08994271 0.19509071 -0.107039385 -0.11794006
0.009002457 0.008049692 -0.0057285647 -0.15965651 -0.06422373 -0.019809064 0.22720818 -0.12987965
0.07450175 -0.15043165 0.12777276 0.12496953 0.049888548 0.07978971 -0.011920762 -0.07473356
-0.046180688 0.15661371 -0.12991184 0.17144147 0.21386984 0.05359563 -0.049315408 0.08802904
0.22088572 0.10761136 -0.10382891 0.07735659 0.30267128 0.078060836 0.1129942 0.2482133
-0.00779155 -0.13555658 0.10158593 -0.07240615 -0.043847717 0.15165052 0.009925778 0.14047708
0.16817068 -0.11177381 0.23275845 -0.03958571 0.06996344 -0.04871243 0.14969897 -0.13360058
0.013335483 0.08172154 0.18724637 -0.010586061 -0.054818105 -0.096394256 0.066236414 0.17442876
0.049404714 -0.072268866 -0.033824995 0.050385486 0.080478214 0.10504344 0.110110596 0.0942975
0.05295185 0.06416174 0.15588921 0.17976429 -0.19893658 -0.058924597 0.12907472 0.16874996
-0.10670787 -0.00379827 -0.17298225 -0.0031065298 0.1666219 -0.050690915 0.15538053 0.12209803
-0.15506472 0.16079699 0.060542002 0.11142169 0.14371872 -0.1038219 -0.102983624 0.05569819
-0.01669106 0.096440196 0.0021506818 0.18005577 0.035058316 0.05181595 -0.012160933 -0.046481017

fc2.weight f4 [300, 400]
00000000: f852 4cbd ada3 8abd 26af 043d 3419 363d
00000010: 0a59 7bbd 76ff 4d3d e326 f43b ffda fabc
00000020: 3e46 42bd 34ea 5dbc 4347 81bc 84f9 07bd
00000030: 7606 043c a54d 6f39 433e 383b 88e8 84bd
00000040: d779 9ebc 0403 2b3d c94d 59bc 6977 2ebc
00000050: f00f 133c d2b0 74bd b01a 09bd fb25 413d
00000060: 73a5 fb3c e572 a9bc 611d 183d 0a3f 6f3c
00000070: 1c75 ee3b 7232 0e3d 0ab3 6fbd 6a6d c33c
00000080: 3adf 863c 3701 bb3c eb22 f9bc 6668 ee3c
00000090: ce6f 03bd 7b10 45bd da95 8d3c 2c7f a13c
000000a0: a317 b5bc 04dd 8a3c 3ce6 333d ed3e 883c
000000b0: 1a44 bd3d 91a4 7ebc 96d7 c73c 18e6 f7bc
000000c0: ca46 273d 2ff7 cfbc 45a9 1e3d 6537 693d
000000d0: 025b 353c 6079 9a3d 01df cfbc 5bb6 bbbc
000000e0: 9166 1bbd 20a9 953b 3ccc 87bc ffde c43c
000000f0: aa23 8fbd 7558 b13c 3a1a 19bd b068 0e3d
00000100: 6228 ebba 2ab7 343d 95e9 c4bb 5424 8d3d
00000110: 75f8 87bb f882 abbc 2bc0 8c3d 5eb3 28bc
00000120: 3c42 433c 185e 213c c1e5 4a3d 7642 c6bc
00000130: 2590 5c3d f7d5 6fbc fd8d 183b 614a 23bd
00000140: 9403 863c 78c0 95bc 8d63 cebb 9278 a9bc
00000150: c573 f03c d903 71bb 7029 583d adda ea3b
00000160: 65bd 6fbb 9d08 b83c 4b32 adbb efe7 36bd
00000170: 3921 cc39 6cb4 0fbc b4ea 2dbd fefa b5bc
00000180: 2d2a 67bd 73c5 113d 1c8e 9d3c f756 c33c
00000190: 408d cebc c331 8c3c 0691 d0ba 3415 763c
000001a0: 964c 383c 3220 593c b2f7 623d 5e15 60bd
000001b0: e635 24bd 3fb8 0dbd 9d74 0d3c 8256 3abd
000001c0: ed45 5d3b 9265 183d 2dc0 293d 7efa 783c
000001d0: 93fa 573c c237 fb3d 2334 aa3c 4704 f2b9
000001e0: c4b2 7cbd ad32 15bd f93b 78bc 53dc d8bc
000001f0: 6968 1a3d 00ed 68bb aa0e 65bd 7a18 6f3c
00000200: da4d 36ba ba67 ccbc bfd9 363c 5307 cc3c
00000210: b7ad 4d3d 0806 2f3d 4f40 ddbb ec70 073d
00000220: d6a9 863b 6b87 1abd a3b3 493d a04f 983d
00000230: ba8d f2bc 9521 61bd 1174 e03c 8f0c a83d
00000240: 2840 063d e6da 3b3d 9913 34bc 05cc 4c3d
00000250: 43fc 653c 27cd 973d 65b3 a93c 8155 b33d
00000260: ec27 71bd 572c a53c f663 86bc a3e0 003d
00000270: ed40 e23b 5e6e e23b 8ca8 9f3d e8a7 633d
00000280: 6e47 bdbc 99f0 84bd c992 613c a37f 463d
00000290: 67d4 c53c 7fcf 0abd a3a3 4b3d 1a3f 883c
000002a0: 25ae 5f3d 01d8 ad3d f7ee ccb9 ee5e 2c3d
000002b0: e402 d8bc a2af d93c cd05 0b3c 48e2 793d
000002c0: a5e5 003d 3eb8 133c 13dd c13b 87df a03c
000002d0: 11a4 de3c 96a1 563d b0d5 953d 1888 043d
000002e0: b153 973d 6c43 9c3a a1ec fbbc 37db 42bd
000002f0: d6f4 20bd 2a3b d4bc 59f8 50bd 5b5f 0cbc
00000300: 5d4c ef3c ed9a 60bd 8ce2 483d 7338 19bd
00000310: d23c 3d3c e275 8e3b fb8a 4fbc 4462 88bd
00000320: 9312 2c3d b08e 10bc 5089 7c3c 0149 28bd
00000330: adce 923b 0229 e43c 0e0e adbc fb2f c1bc
00000340: 63a4 87bc e712 313d 3fd0 ea3c 105c c33c
00000350: ce2a 89bd 2a02 3a3d 17d2 2ebd 0b44 16bb
00000360: fac5 79bc 9c4b 2ebc 0fa8 c23c 1445 4abd
00000370: ab39 86bc 02ce 273c 8c97 433d 9371 463d
00000380: 3760 553b e19a 8fbc f43d 90bd 3467 a33c
00000390: bae9 0d3d 3768 eb3c 7c4e ebbb 5d62 323d
000003a0: ec77 36bc c32f 36bd ff30 7bbd 72ea 573d
000003b0: 5ca4 423d 5ea6 fa3c 7319 823c 7b13 f2bc
000003c0: 2187 0d3d fb64 183a 2203 56bc ca2b 893d
000003d0: 5964 4bbd 0b1a 25bc 585b 213b f56d 35bc
000003e0: a72f 783d b401 9d3c d598 87bc 421e 8fba
000003f0: 808a da3b d230 42bd 61cc 013c d800 e93c
-0.049883813 -0.067695 0.032393597 0.04445763 -0.06136421 0.050292455 0.0074509247 -0.030622004
-0.04743027 -0.013544608 -0.01578105 -0.03319694 0.008058181 0.00022821741 0.0028113283 -0.06489664
-0.019345207 0.041750923 -0.013263174 -0.010648587 0.008975968 -0.05973894 -0.033472717 0.04715536
0.03071854 -0.020684669 0.037137393 0.014602432 0.007277144 0.034716077 -0.058520354 0.023855884
0.016463865 0.022827728 -0.030412158 0.029102515 -0.032089047 -0.04811142 0.017283369 0.01971396
-0.022105997 0.016951092 0.04392074 0.016631568 0.09241505 -0.015542165 0.024394792 -0.030261084
0.040838994 -0.025386421 0.038735647 0.056937594 0.011069061 0.07542682 -0.025374891 -0.022914102
-0.03793961 0.0045672804 -0.016576879 0.024032114 -0.06989224 0.021648625 -0.037378527 0.034767807
-0.0017941112 0.04411999 -0.0060092905 0.06891695 -0.0041494914 -0.020936474 0.06872591 -0.010296671
0.011917647 0.009849094 0.049535517 -0.024201613 0.053848404 -0.014638416 0.002327799 -0.039865855
0.016359128 -0.018280253 -0.0062984885 -0.020687375 0.029352078 -0.0036775975 0.052773893 0.0071671815
-0.0036581394 0.022465045 -0.0052855364 -0.044654783 0.00038934665 -0.008771043 -0.04246016 -0.022214409
-0.056436706 0.035588693 0.019232802 0.023845179 -0.025213838 0.017113572 -0.0015912361 0.015019704
0.011248728 0.013252305 0.055412002 -0.054707877 -0.040090464 -0.03459954 0.00863376 -0.045492657
0.0033763603 0.03720624 0.04144304 0.015196441 0.0131823 0.12266494 0.020776814 -0.00046161024
-0.06169392 -0.03642528 -0.015151017 -0.026472246 0.03769723 -0.0035541654 -0.055922188 0.014593238
-0.000695435 -0.024951804 0.011160313 0.024905836 0.050214496 0.04273036 -0.006752051 0.033066675
0.0041096015 -0.0377268 0.04924358 0.07437062 -0.029608596 -0.054963667 0.027399095 0.0820552
0.032776028 0.045863055 -0.010991001 0.049999256 0.014037195 0.074121766 0.020715425 0.08756543
-0.058875963 0.020162744 -0.016405087 0.03146423 0.0069047124 0.0069101295 0.0779582 0.05558005
-0.02310535 -0.06491203 0.013767906 0.048461568 0.024149133 -0.03388929 0.049716603 0.016631652
0.054609437 0.08488465 -0.00039087955 0.04208272 -0.026368566 0.026573006 0.00848527 0.061006814
0.031469006 0.009016095 0.0059162467 0.019637836 0.027177842 0.052400194 0.07316148 0.03235635
0.0738901 0.0011921949 -0.030752482 -0.04757234 -0.039295994 -0.025907118 -0.051018093 -0.008567656
0.029211218 -0.05483525 0.049044177 -0.03740735 0.011550145 0.004347549 -0.012667413 -0.06659368
0.0420099 -0.008823082 0.015413597 -0.041085247 0.004480204 0.027851585 -0.021124866 -0.02358245
-0.016557878 0.043230917 0.028663753 0.02384761 -0.066976175 0.04541222 -0.042680826 -0.002292874
-0.015244955 -0.010638144 0.023761777 -0.049382284 -0.01638492 0.010241987 0.04775195 0.048448157
0.003255857 -0.017529907 -0.070430666 0.019946672 0.034646727 0.028736217 -0.007180987 0.043550838
-0.01113699 -0.044479143 -0.061326023 0.05271382 0.047520027 0.030596908 0.015881276 -0.029550305
0.034552697 0.0005813387 -0.01306227 0.06697805 -0.049656246 -0.01007701 0.0024621096 -0.011073579
0.06059232 0.019165851 -0.016552368 -0.0010919052 0.0066693425 -0.04740984 0.007922263 0.028442785

fc2.bias f4 [300]
00000000: 90d1 893d 32e7 443d 825b 96bb b7a5 69bc
00000010: c14f e83c 9a51 f73c ccfa 373d 5955 413d
00000020: 15ba 093d b71a 1abc 0c5b 0c3d b274 303d
00000030: 6014 333d f212 ce3c 3e29 7abc 3f7c 8a3d
00000040: c589 313d 98b9 673d bdd3 75bc 0070 cf3c
00000050: 24e8 f9bc 99a7 cebc 86d2 293a c889 1c3d
00000060: 6854 693b 9ea8 7c3a efa5 e4ba 967e 34bc
00000070: 6a5b c13c 3894 953c 6a43 a23c aec0 213d
00000080: d4d1 1abd c3ce fcbc 8182 f93b 3441 0d3c
00000090: 4404 bc3b 52e4 083d 5779 b1bc 6bd7 103d
000000a0: 5bda 61bd 013f 323b 62be 573d c4d4 c23c
000000b0: 4f67 213d 99d0 aabc 5f0b 543d bf5e d83b
000000c0: ad34 43bc 5f04 073d 358c cebc 4c05 9fbb
000000d0: 8425 29bc 78b5 1f3d d970 3a3d 3979 433c
000000e0: 4f66 023b d3d0 54bd e696 1d3d bdac 3a3d
000000f0: 5fd3 d83c 3762 2c3d 1a7d d6bc 0cab 1c3c
00000100: 1f8a 81bc ed77 723c 5d80 12bd 73b6 2fbc
00000110: 5dd5 323d 057e d73c 2bdb f93c b9b5 443d
00000120: d121 883d 974d 9b3d 9f3d 5a3b a5d1 ea3b
00000130: a4dd ea3b d5dd c43c 1e9b 113d 5ec2 853d
00000140: e78c 6d3b 6aca 8dbb c3ab 413d a627 04bc
00000150: 6d8d c43c 6f9b 273d cc12 b7bc 662c 093d
00000160: 7f10 493d a07d e33c 37f4 5e3c 0a69 313d
00000170: 812c bb3c 4d61 8d3d f24b 1cbd 2dc1 b13a
00000180: 47d1 0b3b 3fbd da3c 5876 f23c 1e69 f3bc
00000190: 8e04 1dbc 7869 213d 168c 8bba fa4f debb
000001a0: 2873 093d 2d9e 80bd b93b 4e3d 4589 913c
000001b0: b073 c43c 2228 7b3c 1562 d83c 948b 2abc
000001c0: 85c7 c93c c2af 023d ca1e fe3c 5002 3f3d
000001d0: 2aab 323b a819 173a 5f1d 4a3d 2e0e 343d
000001e0: 74ab 7d3c dab9 f33c ca27 623d 5981 103d
000001f0: 75e5 063d 3c0b a1bc 0277 363d 9ca4 313d
00000200: d4b8 edbb 4751 1a3d 2aa0 14bb 3d9e 173c
00000210: 1e8c 27bc 8a0c 053c 5b93 d2bb 3c05 203d
00000220: d188 d5bc 4a45 0e3d 0a9c d5bc 73a9 6b3c
00000230: 421c 0c3d 565c 313d 2e4b 0dbd c954 df3b
00000240: b049 48bc eac8 6abd c989 6c3c 8af1 513d
00000250: 3cab 00bd 222b 0bbb ee6b c8bc 512c 593d
00000260: 446e a6bc 9219 13bd 67cd 17bd 9f36 a6bb
00000270: 80d5 75bd 315a 85bc 4169 d33c 2a85 07bc
00000280: 2beb 01bc fb6a 263d db7f 5ebb 9925 c0bb
00000290: b2c1 6dbd b41d 84bc f645 c8b9 377e 133d
000002a0: b1a2 873c 8b76 d1bc eaaf 7f3c c53b 4ebc
000002b0: 1bbe f1bc ff8b 563d 69e6 153d e611 4ebc
000002c0: 5429 e2bb 41e6 a43b 6802 f2bc 66c7 a9bb
000002d0: 7ad9 abbc 8b24 d23c cf1d 1d3d 5663 f93c
000002e0: ade3 22bc 053f 19bc e6d6 3cb9 d8f0 3a3d
000002f0: 2ade 943d 11b9 913c d970 403d e2c9 b53d
00000300: 48f7 563d 001d fa3c e9a5 503c 4ccd 983c
00000310: 6a78 443d 0370 b9bc 7485 58bc 58e5 fb3b
00000320: 9105 303d 1905 c73c 7050 cc3b 82b1 883d
00000330: 80da 823d 5681 3b3d e9c8 333d 443c 4f3c
00000340: fa75 013d cbb2 ed3c 372c dc3c 2685 b53b
00000350: 1b82 7e3d 6112 e2bc 82c4 5e3d 0ba8 05bd
00000360: 8883 c83c 683d 093d 2c27 47bd 0319 9fbc
00000370: 252e 1a3c 0843 463c 3e24 54bd 83c9 293c
00000380: 51a8 04bd abf4 d63c f308 1e3a b05b edb7
00000390: a8bb aa3c 2b00 163d b3fd 0cbc 135c fc3c
000003a0: fba7 343d 400d 243d dbcf 1e3d 33e8 a53c
000003b0: e39e eb3c 297b 243d 544e a3bc 8e12 2abd
000003c0: 6dad b23b 61ca ef3b a1ee 3b3b b4db 7a3a
000003d0: 6cdb 803d b6d5 203d 81fc 853d e43a 893d
000003e0: fed8 11bd 0f5a 483c 4add f63c ad03 abbc
000003f0: 4e30 5c3d 63ee afbc c96d 843d 74ad f9bc
0.06729424 0.048072048 -0.0045885453 -0.014260701 0.028358342 0.030190278 0.044916913 0.047200534
0.033624727 -0.009405783 0.034266517 0.04308004 0.043720603 0.025155518 -0.015268622 0.06761979
0.043344278 0.05657348 -0.015004096 0.02532196 -0.030506201 -0.025226401 0.0006478209 0.038217336
0.0035603289 0.0009638163 -0.0017444472 -0.011016509 0.02360316 0.018259153 0.019807536 0.039490394
-0.037797764 -0.03086031 0.007614434 0.008621503 0.005737813 0.03342087 -0.021664305 0.03536169
-0.05513988 0.0027198198 0.052671798 0.023783095 0.039405163 -0.02085142 0.051768657 0.0066030915
-0.011914414 0.032963153 -0.02521334 -0.0048529264 -0.010323886 0.03899142 0.045517776 0.011930757
0.0019897406 -0.051956963 0.038473986 0.045574892 0.026467977 0.042085852 -0.0261827 0.009562265
-0.015812932 0.0147991 -0.035766948 -0.010724652 0.04366051 0.026305208 0.030500015 0.048024867
0.06647075 0.075831585 0.003330089 0.007166105 0.007167535 0.024031559 0.035548322 0.06531213
0.0036247314 -0.004327108 0.047282945 -0.008066094 0.023993218 0.040919717 -0.02234783 0.033489607
0.049087998 0.027769864 0.01360803 0.043313064 0.02284837 0.06903324 -0.038158365 0.0013561599
0.0021334456 0.026701568 0.029597446 -0.02971321 -0.009583605 0.039407223 -0.0010646607 -0.0067844363
0.033557087 -0.0628017 0.050349925 0.01776565 0.023980945 0.015329393 0.026413957 -0.010409255
0.024631271 0.031905897 0.03102054 0.046633065 0.0027262666 0.0005764016 0.049344417 0.043958835
0.015482772 0.029751707 0.055213727 0.035279606 0.03293367 -0.019658677 0.04454709 0.043369874
-0.0072546992 0.03767517 -0.0022678473 0.009254036 -0.010226278 0.008120665 -0.0064262575 0.039067492
-0.026066216 0.034734048 -0.026075382 0.014383662 0.034206636 0.04330095 -0.034495525 0.006815527
-0.0122246 -0.057320513 0.014437147 0.05125574 -0.0314133 -0.0021235426 -0.024465527 0.05302078
-0.02031625 -0.035913058 -0.03706112 -0.0050724293 -0.060018063 -0.016278358 0.025807025 -0.008271495
-0.007929604 0.04062937 -0.003395072 -0.005863857 -0.05804605 -0.016127445 -0.00038199098 0.03600904
0.01655707 -0.025569221 0.015605906 -0.012587492 -0.029509595 0.052379604 0.03659669 -0.0125775095
-0.0069018994 0.005032331 -0.029542163 -0.005181241 -0.020977724 0.02565219 0.038358506 0.030442875
-0.009941977 -0.009353404 -0.00018009133 0.045639843 0.07268937 0.017788442 0.04698262 0.08876397
0.05248192 0.030531406 0.012734869 0.01865258 0.0479664 -0.02263642 -0.013215411 0.007687252
0.04297406 0.024294423 0.006235175 0.06674482 0.06389332 0.04577764 0.043892775 0.012648646
0.03160665 0.02901592 0.026876552 0.005539554 0.062135797 -0.027596654 0.054386623 -0.03263096
0.024476781 0.033505827 -0.04862134 -0.019421106 0.009410416 0.012100942 -0.051792376 0.010362986
-0.03238708 0.026239714 0.0006028555 -2.8295297e-05 0.020841435 0.036621254 -0.0086054085 0.030805623
0.04410551 0.0400517 0.038772445 0.020252323 0.028762287 0.040156517 -0.01993481 -0.0415216
0.005452803 0.0073178266 0.002867617 0.00095694815 0.062918514 0.03926631 0.06542302 0.067006856
-0.03560733 0.012228503 0.030134816 -0.020875776 0.053757004 -0.021475976 0.06466252 -0.030478217

fc3.weight f4 [4, 300]
00000000: ab06 1cbd 9606 2b3e b076 9a3e 77a9 4e3d
00000010: 51b3 23be acf9 483d ede5 5cbd fb88 953d
00000020: fb7b debc 3d43 59bd 5b4f 813d d20f a1bd
00000030: a25f 363d e8e4 2fbd edee 0b3e 7124 a6ba
00000040: 103f 4a3e 9c8d 19bd d237 a2bd 4119 d0bd
00000050: d6a8 b93d 6c1b de3d c281 28be 76b7 0ebe
00000060: aaec b4bd 00e9 943d 475e f03d fca6 1bbe
00000070: 8350 163e c6d9 373d 0694 093c d3af 9bbd
00000080: 9fce 15bd bf7e c4bd d935 913d 9695 de3c
00000090: ade7 e53d 8c0b 05bd bc27 2a3e 329e 05be
000000a0: d10f f93d 53b7 10be 1757 10bb a062 c6bc
000000b0: 27e4 08be 1567 14be ff45 63be df9b 00be
000000c0: dad1 723d 7b17 b5bc 2a64 debd 19eb ddbc
000000d0: 530f 6cbd 2009 15bd 8b1a 3cbd 7554 aebd
000000e0: 3c3e 423c 7d32 533e dfe5 5ebe c920 6fbe
000000f0: 0c9c 1d3c d77d d43d 3738 1f3c 2931 bf3d
00000100: c45b e23d dba2 b93d 30ec 6c3d d713 8e3d
00000110: 5b16 5ebd 0724 113d c725 0dbe 7a7a 94bd
00000120: f067 21bc 6311 01be 7cc8 ef3d 8e4d f2bd
00000130: f77f 913d 4573 373c 7a43 98bd c515 553d
00000140: a9cc 073e 48aa 903c 1716 c13c d910 b9bd
00000150: 5e07 ec3d a78f 933d c92b bb3b ac74 20bd
00000160: 0ce8 94bd 979a 3bbe 6fa6 9fbc bf03 b0bb
00000170: ef71 c4bb b886 9c3d 9817 d6bd 9538 263e
00000180: 321c 923e f22b bb3d 82ba 7abe ebcf 19be
00000190: b024 3e3d 8bb8 39be 4fa8 81bc 54dc f93d
000001a0: 92b5 073e f9e1 1dbe 96a3 313e 57ab c8bd
000001b0: 0a80 3c3e 0aac f23d 6688 35be c4d3 1abd
000001c0: f491 c6bc 8ff3 2b3d 5acd 5c3e fa66 6f3d
000001d0: 020b a7be 9ce3 90be 00fd 593d 8f81 b63d
000001e0: 665a 373d 59db 2e3d a1e2 46bd cc27 e93d
000001f0: d514 293d 895c e53d 0be4 55be 3018 25be
00000200: f058 9d3d 881a 0ebe fdb7 0a3e 20d5 1abe
00000210: 8667 67bd 52d1 9a3d fa9d 583d 9cc4 f23d
00000220: bc1c 853d d47e 0e3d 5cab 0e3e 0b96 96bc
00000230: 8a2f cdbd c7cf 4abd 5617 253e d9eb e0bd
00000240: e972 0ebd 6be8 bdbd 8e4a 46bd f01d 113c
00000250: 0c0a 0d3e d536 cd3c 663d 573d c4b6 e63c
00000260: 648e f4bd fd1a be3d e24a 19bc e6e4 f9bd
00000270: b520 86be 0850 123e e307 323e a235 f23c
00000280: e88e 8fbd 245a 06be 005c 1cbe 8db1 713e
00000290: e72f 35be 137a 743e a35f 4bbd fe78 90bd
000002a0: 7dfd ba3d f3e9 123e e0a5 293d ac3f 10bd
000002b0: 983f b6b9 4c1d 0cbe 643e a73c 911c 7e3d
000002c0: 4442 0ebe 7a17 2d3e 5a22 3a3e a7df 06be
000002d0: d153 843d a70f 6ebd 3e60 c7bd 4da8 2abd
000002e0: 7b90 bbbd 163e 26be 532d 713c 668d 843e
000002f0: cc28 3ebe 4183 4bbd 0d5c 393d f3ae 21be
00000300: ead0 003e 06c3 a63d 5735 413e 89cb 42bd
00000310: 6602 17bd e3d8 963d 7469 353e baa2 253d
00000320: 40a8 013c 271c a03d 31cf a13d 7d2b c33d
00000330: dd6a eb3d ffb0 763d f199 583d 3604 4d3e
00000340: 2ea0 b73d 2fdf e9bd 5a0c df3d 1a2e fcbd
00000350: e907 a53d 4994 bcbd deab acbd a50c 863e
00000360: 130a 0bbe 89c8 9d3d 9f87 053e e25e c4bb
00000370: 0c94 adbd 84d9 cf3d bf10 8ebd 3f10 d0bd
00000380: 7fdc 7e3d 8990 923e 27b5 9d3b 0d17 2b3e
00000390: 2e80 073e dcc8 46be 4958 4f3e 168e 14be
000003a0: b416 60bd 2c43 e1bd ef5b babd 2f4b 143e
000003b0: dfc4 86bd ae2b 2a3e 1304 623e e5a4 3b3e
000003c0: 2908 bdbd be32 ecbd 25ee 0bba a742 b3bd
000003d0: 4ef2 b23d c95d 82bd a32d 2abe c013 693c
000003e0: 0bba 513e 5db1 b7bd c2dd c5bd 62a0 b73d
000003f0: cdfe a13d 0f5f 09bd 7426 d4bd 7e3a 933d
-0.038092297 0.16701731 0.30168676 0.050454583 -0.15986373 0.04906623 -0.05393021 0.073015176
-0.027158728 -0.05304264 0.06313964 -0.078643456 0.044524796 -0.04294291 0.13665362 -0.0012675655
0.19750619 -0.037488565 -0.07920803 -0.10161067 0.09065406 0.10845074 -0.16455749 -0.13937172
-0.088342026 0.07271004 0.11736732 -0.15200418 0.1467915 0.04488542 0.008397108 -0.07601895
-0.036574002 -0.095944874 0.07090349 0.027170938 0.11225829 -0.032481715 0.1661672 -0.13048628
0.1216122 -0.14132433 -0.0022024566 -0.02421695 -0.13368283 -0.14492448 -0.2219467 -0.1255946
0.05928216 -0.022105923 -0.108589485 -0.027089642 -0.0576318 -0.036385655 -0.04592375 -0.08512203
0.011855658 0.20624729 -0.21767376 -0.2335235 0.009619724 0.103755645 0.0097179925 0.093355484
0.11052659 0.09064265 0.057842433 0.06937378 -0.05422054 0.03543475 -0.13783942 -0.07249923
-0.009851441 -0.12604289 0.11708161 -0.11831199 0.071044855 0.011196916 -0.07434745 0.052022714
0.13261665 0.017659321 0.023570104 -0.090364166 0.11524843 0.07205134 0.0057120067 -0.039173767
-0.07270822 -0.1832069 -0.019488541 -0.0053715403 -0.0059950273 0.07642883 -0.10453719 0.16232522
0.28537136 0.09139241 -0.2448521 -0.1502072 0.046421707 -0.18136804 -0.015827326 0.122002274
0.13252857 -0.15418233 0.1734756 -0.097983055 0.18408218 0.1184922 -0.17727813 -0.03779961
-0.024239518 0.041980322 0.2156271 0.058447815 -0.32625586 -0.28298652 0.053219795 0.0891143
0.044763945 0.042689655 -0.048555974 0.11384544 0.041279633 0.1119929 -0.20887773 -0.16122508
0.07682979 -0.13877308 0.13546748 -0.15120363 -0.056495212 0.07559456 0.052885033 0.118539065
0.06499621 0.03478892 0.13932556 -0.018382093 -0.10018833 -0.04951456 0.16122183 -0.10982484
-0.034777556 -0.09272846 -0.048410945 0.008857235 0.13773364 0.02505056 0.05254879 0.028163321
-0.11941221 0.09282491 -0.009356232 -0.12201862 -0.26196828 0.14288342 0.17385821 0.02956659
-0.07009679 -0.13120323 -0.1526947 0.23602886 -0.17694055 0.23874693 -0.049651753 -0.070543274
0.0913038 0.14347057 0.041417956 -0.035216972 -0.00034761126 -0.13683051 0.020415492 0.06203896
-0.13892466 0.16903487 0.18177167 -0.13171254 0.06461299 -0.058120396 -0.097351536 -0.04166441
-0.09158417 -0.16234621 0.014720279 0.25889128 -0.1857025 -0.04968572 0.045253802 -0.15789394
0.12579694 0.081426665 0.18868004 -0.047557388 -0.03686752 0.073655866 0.17716008 0.04043839
0.007913649 0.0781787 0.07900847 0.09529779 0.11494992 0.06022739 0.052881185 0.20021138
0.08966099 -0.11419522 0.10891028 -0.12313481 0.08058149 -0.09207971 -0.084312186 0.26181522
-0.13578062 0.07704265 0.13040017 -0.005992756 -0.08475503 0.1014891 -0.06936788 -0.10159349
0.062222 0.28625897 0.004812855 0.16708012 0.1323249 -0.1941256 0.20248522 -0.14507326
-0.05470915 -0.1099914 -0.09099566 0.14481805 -0.06580519 0.16618225 0.22071867 0.18324621
-0.09230072 -0.11533116 -0.00053379155 -0.08752947 0.08737622 -0.06365544 -0.16618972 0.0142259
0.20481126 -0.08969376 -0.096614376 0.089661375 0.079099275 -0.03353792 -0.10358897 0.07188891

fc3.bias f4 [4]
00000000: 1dbf c5bb a72b 383c b5cb d93b 5f2b d5bc
-0.0060347454 0.011240876 0.006646598 -0.026021658
