td3_checkpoint_critic.pth (torch_old, 544292 bytes, 5 tensors)

fcs1.weight f4 [400, 37]
0.022544356 0.10729835 0.0059710764 -0.2206048 -0.20335063 -0.13533637 0.9816624 -0.023003707
0.08034177 -0.123275734 -0.0036101122 0.059611663 0.011136087 -0.01701644 -0.005166195 0.013532868
-0.2576421 0.31428555 -0.907889 -0.052543823 0.028224602 0.05272151 0.110160165 0.03924535
0.010101143 -0.0026456069 0.08995129 0.20370471 -0.12374563 0.08120301 -0.15965219 0.14140372
0.2751345 -0.026805965 0.0086881975 0.035149567 0.087634645 0.04225543 -0.17256811 -0.11409468
0.06175284 -0.2142958 0.1994981 0.009942058 -0.027065132 0.0069651552 0.07519346 -0.012188056
-0.019205794 -0.011652023 -0.040707797 0.12557323 0.12144744 0.029415373 -0.35412356 0.97993183
0.60938615 -0.026146002 0.0068526003 0.09456635 0.014775841 0.014721508 0.03005109 0.0040065935
0.08635566 -0.078694604 0.012935236 -0.06858823 -0.15837768 0.8070808 -0.012140106 0.03148934
0.00034697662 0.0709816 0.10908483 0.16337867 -0.0846289 0.032229345 -0.5944423 -0.59372216
0.44300395 0.039217275 0.17468417 -0.26821128 0.029296594 0.07704538 -0.026253657 -0.08735167
0.0375416 -0.13524388 0.4787153 0.1979463 0.41812447 -0.20444925 -0.028406741 0.09053117
-0.04353623 -0.08648348 -0.12755467 -0.028061781 0.053977467 0.23424475 0.091096446 0.045298904
-0.21188444 0.07577129 -0.5952036 -0.0425491 -0.029987218 0.1163982 0.0544554 -0.03555919
-0.005427574 -0.115159556 -0.4865535 -0.19420336 -0.5472955 -0.50663924 -0.05082387 0.24932693
0.018412465 0.03984843 0.0004507021 -0.008585599 0.13537171 0.058979247 -0.11198652 -0.56520426
0.14624026 0.1400543 0.51211107 0.019430678 0.0132920705 0.0014486634 0.024453823 0.046996906
0.0015134068 -0.021153959 0.31542596 0.13022411 0.12948917 -0.05485475 -0.0021823198 -0.9641008
0.029563034 0.020260574 0.014594421 0.022568062 0.0002492889 -0.10020415 0.16411649 0.1449715
-0.0010873897 -0.030843595 -0.17440116 0.067074694 -0.13300905 0.14033021 -0.042558372 -0.117026456
-0.013548858 -0.101633474 0.050670236 0.009227685 0.11005175 0.102065444 0.086409844 -0.30261615
-0.035193037 0.10641335 0.05821113 0.006442359 0.010910296 0.03739222 0.10614167 -0.012070708
0.06428942 -0.07893615 -0.0053597153 -0.13016243 -0.11299577 0.006097819 -0.032600746 -0.15133716
-0.038433626 -0.06753956 0.22565752 -0.056380093 -0.24602395 -0.14227639 -0.015436626 0.08704331
-0.07056365 0.012144124 0.023175508 0.036211114 0.0012751562 0.076336995 0.12450411 -0.101132765
0.069230095 0.11083081 0.28991762 0.07303102 -0.1936335 -0.026149249 -0.04288528 -0.051228676
0.06122919 -0.08247154 0.019016948 -0.06603502 -0.11744119 -0.041740183 -0.15118986 -0.1186586
0.1222475 -0.36960903 -0.02796257 0.020575318 -0.053667672 0.15384874 -0.026030997 -0.18860349
-0.13222988 -0.26321065 0.5567465 0.43401253 -0.028536629 0.03330158 -0.34444797 0.012303363
-0.083895385 0.02763478 -0.016717246 -0.060053706 0.19294536 0.052181654 -0.3761528 -0.22146973
-0.23928437 -0.29283223 -0.00045061018 0.030617546 0.093423806 0.08643039 0.037262622 -0.034431092
0.04174883 -0.02464797 -0.021077896 0.1515867 -0.0016959816 0.10847373 -0.62467617 0.022952264
00000000: f1ae b83c 3dbf db3d 05a9 c33b 3ae6 61be
00000010: 263b 50be 9e95 0abe 3a4e 7b3f 4572 bcbc
00000020: 3a8a a43d fd77 fcbd a297 6cbb 5c2b 743d
00000030: 2274 363c 1066 8bbc 2f49 a9bb f6b8 5d3c
00000040: aae9 83be 09ea a03e 6a6b 68bf 3138 57bd
00000050: 4837 e73c 83f2 573d a79b e13d bbbf 203d
00000060: 447f 253c eb61 2dbb 6238 b83d f897 503e
00000070: 596e fdbd c44d a63d dd7b 23be 23cc 103e
00000080: 6ede 8c3e 2f98 dbbc f158 0e3c fef8 0f3d
00000090: cb79 b33d 0814 2d3d b2b5 30be 79aa e9bd
000000a0: 8cf0 7c3d 5c70 5bbe 3b49 4c3e 03e4 223c
000000b0: b2b7 ddbc f53b e43b 07ff 993d 69b0 47bc
000000c0: 7855 9dbc 20e8 3ebc 38bd 26bd 4596 003e
000000d0: 6fb9 f83d 82f8 f03c af4f b5be d0dc 7a3f
000000e0: bb00 1c3f 2430 d6bc c78b e03b 01ac c13d
000000f0: 5e16 723c 7b32 713c b42d f63c be49 833b
00000100: 3cdb b03d a32a a1bd 50ee 533c fc77 8cbd
00000110: c22d 22be d99c 4e3f 4ce7 46bc f7fa 003d
00000120: 6aea b539 cd5e 913d de67 df3d bd4c 273e
00000130: eb51 adbd eb02 043d 5f2d 18bf 2dfe 17bf
00000140: 6ad1 e23e 4ba2 203d 68e0 323e fd52 89be
00000150: 69ff ef3c f8c9 9d3d e911 d7bc 6fe5 b2bd
00000160: 39c5 193d 5f7d 0abe 2c1a f53e 6fb2 4a3e
00000170: 6914 d63e 255b 51be 41b5 e8bc 6868 b93d
00000180: 0c53 32bd 401e b1bd b19d 02be d2e1 e5bc
00000190: 7a17 5d3d dbdd 6f3e c690 ba3d 588b 393d
000001a0: 3cf8 58be fa2d 9b3d 435f 18bf f747 2ebd
000001b0: c1a7 f5bc 2e62 ee3d a00c 5f3d 83a6 11bd
000001c0: cad9 b1bb c6d8 ebbd 8a1d f9be 3fdd 46be
000001d0: 8f1b 0cbf 1cb3 01bf b12c 50bd 8f4f 7f3e
000001e0: bdd5 963c 1b38 233d 364c ec39 9daa 0cbc
000001f0: e29e 0a3e 3994 713d 3059 e5bd 3ab1 10bf
00000200: 02c0 153e 656a 0f3e b619 033f 162d 9f3c
00000210: fcc6 593c 14e1 bd3a 6253 c83c d47f 403d
00000220: 815d c63a 114b adbc 837f a13e 7859 053e
00000230: cf98 043e 60af 60bd 4005 0fbb 4fcf 76bf
00000240: 2d2e f23c 81f9 a53c 701d 6f3c a8e0 b83c
00000250: fdb2 8239 d537 cdbd 270e 283e 6973 143e
00000260: be86 8eba b5ab fcbc 3896 32be 755e 893d
00000270: 8633 08be b9b2 0f3e b051 2ebd 91ab efbd
00000280: 08fc 5dbc 3625 d0bd 988b 4f3d b72f 173c
00000290: d062 e13d b007 d13d a5f7 b03d 81f0 9abe
000002a0: 9326 10bd 3eef d93d cb6e 6e3d 6d1a d33b
000002b0: 19c1 323c 9628 193d ce60 d93d 38c4 45bc
000002c0: 2caa 833d 47a9 a1bd 8da0 afbb 4d49 05be
000002d0: 546a e7bd 37d0 c73b 5c88 05bd 21f8 1abe
000002e0: 946c 1dbd 2e52 8abd c412 673e d0ee 66bd
000002f0: b4ed 7bbe e7b0 11be e7e9 7cbc c343 b23d
00000300: ad83 90bd 26f8 463c 90da bd3c 1b52 143d
00000310: 2423 a73a 9256 9c3d 03fc fe3d b21e cfbd
00000320: 82c8 8d3d 44fb e23d 1570 943e 4a91 953d
00000330: dc47 46be f336 d6bc 7aa8 2fbd 29d5 51bd
00000340: 76cb 7a3d d7e6 a8bd 6ec9 9b3c 5e3d 87bd
00000350: 0285 f0bd c1f7 2abd 84d1 1abe 4803 f3bd
00000360: e65c fa3d 653d bdbe c211 e5bc 928d a83c
00000370: a2d2 5bbd 868a 1d3e f53e d5bc 4621 41be
00000380: 4567 07be 8cc3 86be f086 0e3f e436 de3e
00000390: a6c5 e9bc 3d67 083d 7c5b b0be 0b94 493c
000003a0: 58d1 abbd 5662 e23c 9bf2 88bc e0fa 75bd
000003b0: 7893 453e 6ebc 553d 1a97 c0be f6c8 62be
000003c0: f606 75be 1bee 95be e03f ecb9 a6d1 fa3c
000003d0: fb54 bf3d 6b02 b13d b1a0 183d 9e07 0dbd
000003e0: d200 2b3d 8aea c9bc 8dab acbc 8b39 1b3e
000003f0: b34b deba 7a27 de3d c7ea 1fbf 6306 bc3c

fcs1.bias f4 [400]
-0.056398176 -0.08971915 -0.10197601 -0.23298621 -0.09973897 0.076474816 0.049294073 0.049613368
-0.121275805 -0.14954948 -0.27013147 -0.1513034 0.16543455 0.10742744 -0.16969514 -0.34593055
0.104573116 -0.4188356 -0.17674626 0.0376151 0.0779876 -0.1159748 -0.036672983 0.14034843
0.026334304 -0.13392276 -0.017412568 -0.12635249 0.20162924 0.0926312 -0.25906932 -0.14777629
-0.12062118 -0.0977536 0.07375197 -0.28528178 -0.11125573 -0.03513631 0.029644161 -0.3370911
0.12240491 -0.13658877 -0.26254824 -0.058271375 -0.13324122 -0.063665785 -0.1375128 -0.038380533
-0.16247123 -0.2663169 0.06644044 -0.055946264 -0.08027391 -0.43406424 -0.49498686 -0.024261625
-0.120646544 0.032316104 -0.12758186 -0.080782324 -0.18164918 -0.23015432 -0.08509157 -0.010856381
0.051342495 -0.4603533 -0.0947385 -0.10851092 0.10835443 -0.06609425 -0.43453363 -0.057507414
-0.13110892 -0.38933435 -0.48944739 -0.1333617 -0.19005851 -0.19662222 -0.14687344 -0.084707096
-0.27441964 -0.23463428 -0.00048256264 0.077366866 0.039504956 -0.14279191 -0.28314203 -0.20710526
0.21221742 -0.25977883 -0.22940612 -0.105891034 -0.22338499 -0.2048123 -0.032681685 -0.0875708
-0.39651033 0.0068790466 0.07489349 -0.11986705 -0.07244828 -0.09462156 0.042543206 -0.1045291
-0.23963495 -0.09339832 0.026127016 -0.27251938 0.18855853 -0.15373333 0.20119397 0.11721001
-0.12867434 0.0075250077 -0.22268924 0.09232264 -0.20241313 0.08720158 -0.06778971 -0.09459013
-0.1032798 0.06285238 -0.10411466 -0.3247315 -0.24781804 -0.39045662 -0.16249281 -0.18995957
-0.17847145 0.07746209 -0.13845755 0.09162479 -0.06554189 -0.086715415 -0.09606223 -0.19671798
-0.33141243 -0.05332258 -0.37305465 -0.040744573 -0.14619166 -0.18749774 -0.22059214 -0.06931969
-0.10036301 -0.30873093 -0.023601655 -0.20200253 -0.48732588 -0.25477377 -0.16868103 -0.19227019
-0.03360407 -0.015753858 -0.013853233 -0.25180617 -0.3974241 0.07134138 -0.21090831 -0.096092954
-0.13977155 0.13136089 -0.13153486 -0.26095563 -0.21862964 -0.18405284 -0.057935026 -0.1661136
-0.13714796 0.048699528 -0.34640968 -0.076317385 -0.08989453 -0.36315125 -0.11895385 -0.112706035
-0.20510708 -0.50318944 0.24168499 -0.3278563 -0.3014978 -0.13025996 -0.26567006 0.101807915
-0.36854887 -0.3303966 -0.029791439 -0.13352674 -0.25332016 -0.42315915 -0.21260846 -0.05695124
-0.25254577 -0.0823632 0.207876 -0.12543698 0.047482964 -0.28429002 -0.31409767 -0.06095841
-0.11012697 -0.51890576 -0.15064852 -0.08175531 -0.11996968 -0.26535797 0.08942569 0.057390247
-0.05530909 -0.21945824 -0.06549698 -0.26721984 0.23117203 -0.1451684 -0.033401985 -0.11155202
-0.32771322 0.057166673 0.15236743 -0.29216412 0.00818247 0.023051236 -0.05649468 -0.34447524
0.015989304 0.016948432 -0.05113516 0.16879831 -0.3916789 0.18490571 -0.22052579 -0.27662638
-0.12291353 -0.004333869 0.0402977 -0.1770714 -0.021011963 -0.055653267 -0.0060041957 0.0393725
0.032364696 -0.34587216 -0.2581209 -0.2555545 -0.16766089 -0.012406172 0.013884196 -0.33648184
-0.23313107 -0.19568408 -0.27949297 -0.011903615 -0.3565269 0.12639023 -0.21035403 -0.08968799
00000000: c601 67bd acbe b7bd ccd8 d0bd f093 6ebe
00000010: f243 ccbd d49e 9c3d 95e8 493d 6337 4b3d
00000020: 735f f8bd 8023 19be ac4e 8abe 47ef 1abe
00000030: ad67 293e eb02 dc3d 90c4 2dbe cf1d b1be
00000040: 6e2a d63d 9f71 d6be f9fc 34be 4b12 1a3d
00000050: f6b7 9f3d 3284 edbd 6936 16bd 80b7 0f3e
00000060: 0abb d73c 0c23 09be cda4 8ebc 8c62 01be
00000070: e577 4e3e 6db5 bd3d bca4 84be ab52 17be
00000080: 3d08 f7bd 0a33 c8bd 460b 973d 7410 92be
00000090: 0bda e3bd 17eb 0fbd 50d8 f23c 3497 acbe
000000a0: 6daf fa3d eddd 0bbe b96c 86be f7ad 6ebd
000000b0: 6370 08be 3563 82bd 28d0 0cbe e834 1dbd
000000c0: dc5e 26be b05a 88be ed11 883d e927 65bd
000000d0: a666 a4bd ab3d debe eb6e fdbe 51c0 c6bc
000000e0: 8915 f7bd e45d 043d d2a4 02be 3471 a5bd
000000f0: 3e02 3abe 93ad 6bbe 7d44 aebd f6de 31bc
00000100: 824c 523d 6eb3 ebbe 4206 c2bd f93a debd
00000110: ede8 dd3d 6c5c 87bd 317b debe e58c 6bbd
00000120: 6b41 06be d556 c7be d998 fabe f88f 08be
00000130: b39e 42be 5657 49be fe65 16be ea7a adbd
00000140: bb80 8cbe f843 70be 7600 fdb9 8572 9e3d
00000150: f3cf 213d 0b38 12be fef7 90be 6713 54be
00000160: 864f 593e bb01 85be 70e9 6abe 66dd d8bd
00000170: 09bf 64be 51ba 51be 3bdd 05bd 5258 b3bd
00000180: 6703 cbbe a069 e13b c261 993d db7c f5bd
00000190: c45f 94bd f3c8 c1bd c941 2e3d 5a13 d6bd
000001a0: dd62 75be 9e47 bfbd 5308 d63c a987 8bbe
000001b0: 7d15 413e 456c 1dbe cb05 4e3e cd0b f03d
000001c0: 35c3 03be 5794 f63b a608 64be a713 bd3d
000001d0: 6345 4fbe be96 b23d 55d5 8abd 78b8 c1bd
000001e0: 5c84 d3bd c0b8 803d 113a d5bd 3543 a6be
000001f0: 03c4 7dbe eee9 c7be 8464 26be c384 42be
00000200: 38c1 36be 72a4 9e3d d1c7 0dbe c7a5 bb3d
00000210: d43a 86bd da97 b1bd 46bc c4bd 7070 49be
00000220: e4ae a9be c768 5abd 0501 bfbe c8e3 26bd
00000230: 44b3 15be 68ff 3fbe e8e2 61be 7bf7 8dbd
00000240: 1f8b cdbd fb11 9ebe 4258 c1bc c0d9 4ebe
00000250: c782 f9be b571 82be b8ba 2cbe 7ae2 44be
00000260: 6ca4 09bd 3c0e 81bc acf8 62bc bdec 80be
00000270: 2c7b cbbe 6e1b 923d 59f8 57be 62cc c4bd
00000280: 4620 0fbe 7883 063e 13b1 06be fa9b 85be
00000290: 73e0 5fbe 5978 3cbe 474d 6dbd af19 2abe
000002a0: 8470 0cbe 2879 473d 9c5c b1be 4a4c 9cbd
000002b0: a01a b8bd f6ee b9be 139e f3bd 6cd2 e6bd
000002c0: 9707 52be 06d1 00bf 457c 773e c8dc a7be
000002d0: eb5d 9abe de62 05be e805 88be ab80 d03d
000002e0: 70b2 bcbe be29 a9be 2d0d f4bc 3cbb 08be
000002f0: 2eb3 81be 51a8 d8be 08b6 59be b445 69bd
00000300: ae4d 81be 0aae a8bd 72dd 543e 8d72 00be
00000310: 7f7d 423d 768e 91be 69d1 a0be 87af 79bd
00000320: 408a e1bd 02d7 04bf 9b43 1abe 546f a7bd
00000330: aab2 f5bd 00dd 87be d124 b73d 0912 6b3d
00000340: c98b 62bd a9b9 60be 4823 86bd 0ad1 88be
00000350: 5cb8 6c3e 06a7 14be 85d0 08bd 6375 e4bd
00000360: 07ca a7be 9a27 6a3d 3506 1c3e 8996 95be
00000370: c40f 063c f2d5 bc3c f766 67bd 0f5f b0be
00000380: 00fc 823c 70d7 8a3c 1a73 51bd 77d9 2c3e
00000390: 238a c8be ec57 3d3e 83d1 61be f9a1 8dbe
000003a0: 17ba fbbd 2103 8ebb 330f 253d 3552 35be
000003b0: 4821 acbc aef4 63bd d8be c4bb 0f45 213d
000003c0: d890 043d 2816 b1be 6c28 84be 0ad8 82be
000003d0: 4caf 2bbe 4243 4bbc 8a7a 633c 5947 acbe
000003e0: e9b9 6ebe 6861 48be b419 8fbe 6107 43bc
000003f0: b28a b6be 716c 013e 0c67 57be 56ae b7bd

fc2.weight f4 [300, 400]
0.06355045 -0.051056754 0.057198714 0.063462615 0.016843637 0.062741145 -0.13854349 -0.02321535
0.023861285 -0.024773708 0.073315084 -0.0643428 -0.0524301 0.03734589 0.039576296 -0.042117786
0.011021052 -0.018912703 0.05079246 0.105501875 0.054006454 0.02969804 -0.019064542 -0.073510796
-0.0040232376 0.010790884 0.06122979 0.09341094 0.0044405223 -0.02334624 -0.14061871 -0.08784306
-0.10809475 0.0338032 0.05291913 -0.018499993 0.012343083 -0.013170171 0.036650702 0.07590986
-0.17101832 -0.0042500314 -0.0016411615 -0.028468717 -0.019040707 -0.09807068 0.0229346 -0.021278583
-0.017526563 -0.11125906 -0.068054006 -0.06844573 -0.046599563 -0.009146724 -0.03574715 0.08228989
-0.04699623 0.059101876 -0.029943662 0.11272415 0.18633641 0.03160789 -0.07649399 -0.011041717
0.05487987 -0.00041905252 -0.08041209 -0.017176365 0.02131796 -0.050737206 -0.05054246 0.044433527
-0.025060259 0.001778185 0.005532615 0.0100719 0.023281362 -0.023181882 0.026268093 -0.06298066
0.0024678356 0.1279876 0.05291804 -0.015206141 -0.030546872 -0.0056125084 0.013702162 0.05095693
0.035075106 -0.020960415 -0.06121221 -0.012758291 0.053672694 0.17465128 0.03234954 0.012789262
-0.02991376 0.028073924 -0.071869925 -0.11503396 0.038244933 0.008231581 -0.039656233 -0.06422448
0.063743085 -0.04079746 0.010606004 -0.16187291 0.0057283486 -0.20020667 0.002775272 -0.018454934
-0.004534263 -0.096328974 -0.06255218 0.048092097 0.019992298 -0.025200332 0.0026753235 0.102961935
-0.012600208 -0.004000248 -0.052753087 0.006700849 -0.042802643 -0.01462818 0.0374708 0.023590159
0.006493769 -0.02169674 0.010604105 -0.009636784 -0.04923798 0.057385694 -0.12852108 -0.08043584
-0.06449084 0.01699768 -0.10876929 0.13786882 -0.03357234 -0.04680921 -0.12770525 0.056333296
0.053945728 -0.0033552453 0.004300634 -0.0016285935 -0.08043886 0.07618368 0.09383103 0.08548483
-0.0058756974 0.048931967 0.08824528 0.027855013 0.06877419 -0.040682703 -0.016121807 -0.0071368036
0.04907987 -0.0049680984 0.03954597 0.012644986 -0.020386668 0.018813109 -0.060326155 -0.085359715
0.024213785 0.049342413 0.07064346 -0.008606736 0.06520561 0.023870181 -0.13318284 -0.008905802
-0.017663598 -0.042818286 0.06796203 -0.0032922425 -0.013505113 0.00658589 0.006497224 -0.02522244
-0.03517614 0.027532665 -0.0908672 0.05401625 0.14196809 -0.037617035 0.045179036 0.08078506
-0.11138439 0.10185666 0.057092246 0.03464843 -0.17843057 0.008100243 -0.09921685 -0.009580865
-0.09729411 -0.16014758 0.041406807 -0.042771515 0.16603006 -0.009902515 0.089351855 -0.05515216
-0.007865029 -0.026778277 -0.020040032 0.011286104 0.07451265 -0.10598569 0.065475 0.041940942
0.022362946 0.030388504 -0.05303143 0.1347161 0.068737224 -0.002772702 0.018156482 -0.15857233
0.0468281 0.0037041001 -0.0024607342 -0.051508803 0.025152406 0.09998446 -0.043721646 0.07341245
-0.046770085 0.045988496 -0.06370478 -0.047368392 0.040531408 -0.039064102 0.050429642 0.011003564
-0.02605518 0.00987767 -0.028516416 0.002669882 -0.017410776 0.020607663 0.05838902 -0.038593613
0.0025099015 -0.001209811 -0.019837886 0.05087787 0.09048078 -0.072891496 -0.00454641 -0.010778386
00000000: bd26 823d e320 51bd 3349 6a3d b0f8 813d
00000010: abfb 893c 6e7e 803d 58de 0dbe 1e2e bebc
00000020: be78 c33c 3bf2 cabc 3826 963d 28c6 83bd
00000030: f2c0 56bd 01f8 183d c11a 223d b383 2cbd
00000040: a491 343c d0ee 9abc c10b 503d 5e11 d83d
00000050: df35 5d3d 4e49 f33c 3e2d 9cbc d48c 96bd
00000060: 5dd5 83bb 3fcc 303c 17cc 7a3d 3c4e bf3d
00000070: cd81 913b 9d40 bfbc 5afe 0fbe 10e7 b3bd
00000080: c860 ddbd 3975 0a3d bbc1 583d 4c8d 97bc
00000090: a43a 4a3c b3c7 57bc 0c1f 163d a176 9b3d
000000a0: 6d1f 2fbe d943 8bbb 3e1c d7ba 3a37 e9bc
000000b0: 42fb 9bbc 48d9 c8bd 58e1 bb3c 6c50 aebc
000000c0: de93 8fbc cadb e3bd e65f 8bbd 462d 8cbd
000000d0: 2fdf 3ebd 24dc 15bc 9b6b 12bd 9a87 a83d
000000e0: 1e7f 40bd cf14 723d 694c f5bc ebdb e63d
000000f0: f9ce 3e3e 4677 013d e2a8 9cbd 51e8 34bc
00000100: b7c9 603d 47b4 dbb9 18af a4bd 73b5 8cbc
00000110: 01a3 ae3c d1d1 4fbd 9c05 4fbd eeff 353d
00000120: 2c4b cdbc fd11 e93a f04a b53b 9c04 253c
00000130: 8eb8 be3c eee7 bdbc 2f30 d73c 01fc 80bd
00000140: 69bb 213b 2e0f 033e 96c0 583d 2e23 79bc
00000150: 6f3d fabc 22e9 b7bb 087f 603c 37b8 503d
00000160: eaaa 0f3d 2db5 abbc a8b9 7abd 2708 51bc
00000170: e6d7 5b3d c9d7 323e f480 043d 0e8a 513c
00000180: b40d f5bc 49fb e53c 8a30 93bd ed96 ebbd
00000190: b8a6 1c3d c1dd 063c 936e 22bd 2088 83bd
000001a0: bc8b 823d 3d1b 27bd cec4 2d3c 03c2 25be
000001b0: dfb4 bb3b fa02 4dbe 56e1 353b cd2e 97bc
000001c0: 2894 94bb 2048 c5bd 5b1b 80bd 38fc 443d
000001d0: e3c6 a33c ed70 cebc 7b54 2f3b b5dd d23d
000001e0: 1a71 4ebc 8314 83bb 9f13 58bd cc92 db3b
000001f0: d351 2fbd 09ab 6fbc fb7a 193d 2640 c13c
00000200: afc9 d43b 5dbd b1bc d7bc 2d3c 9ae3 1dbc
00000210: c4ad 49bd 430d 6b3d 089b 03be 8cbb a4bd
00000220: c613 84bd b83e 8b3c 6fc2 debd 7c2d 0d3e
00000230: 2683 09bd 04bb 3fbd 2ac5 02be bebd 663d
00000240: 32f6 5c3d ade3 5bbb 55ec 8c3b 8876 d5ba
00000250: 21bd a4bd 3006 9c3d 7c2a c03d ac12 af3d
00000260: ec88 c0bb e36c 483d f1b9 b43d 3230 e43c
00000270: 7cd9 8c3d e8a2 26bd e111 84bc d9db e9bb
00000280: f907 493d 6ecb a2bb f4fa 213d ea2c 4f3c
00000290: f101 a7bc f31d 9a3c 8f18 77bd 13d1 aebd
000002a0: fd5b c63c 451b 4a3d 85ad 903d 4403 0dbc
000002b0: 858a 853d 668b c33c 1561 08be a4e9 11bc
000002c0: 40b3 90bc 3a62 2fbd ad2f 8b3d aac2 57bb
000002d0: 8d44 5dbc 73ce d73b aae6 d43b 4a9f cebc
000002e0: db14 10bd 2f8c e13c 9518 babd 2540 5d3d
000002f0: 1560 113e 5214 1abd a70d 393d a372 a53d
00000300: 801d e4bd 399a d03d 8fd9 693d 83eb 0d3d
00000310: 81b6 36be e2b6 043c 3432 cbbd 0ff9 1cbc
00000320: 2242 c7bd bafd 23be 2f9a 293d 2f31 2fbd
00000330: c903 2a3e 293e 22bc 1bfe b63d 3be7 61bd
00000340: 53dc 00bc 1e5e dbbc fe2a a4bc 5ae9 383c
00000350: 179a 983d 070f d9bd c217 863d 44ca 2b3d
00000360: 7f32 b73c 50f1 f83c 7c37 59bd 04f3 093e
00000370: 1ac6 8c3d 38b6 35bb e7bc 943c c960 22be
00000380: d2ce 3f3d 7dc0 723b 4544 21bb e5fa 52bd
00000390: 6b0c ce3c a7c4 cc3d 7815 33bd 4459 963d
000003a0: fd91 3fbd 6f5e 3c3d a777 82bd 5c05 42bd
000003b0: 4304 263d ae01 20bd 508f 4e3d 4b48 343c
000003c0: ac71 d5bc f3d5 213c 429b e9bc 30f9 2e3b
000003d0: 0ba1 8ebc 67d1 a83c 5329 6f3d 5614 1ebd
000003e0: 297d 243b 8592 9eba 1083 a2bc 5065 503d
000003f0: fd4d b93d 2348 95bd 0dfa 94bb d497 30bc

fc2.bias f4 [300]
0.17038886 0.16985634 -0.1613785 -0.14240524 -0.18380912 0.13553356 0.1367882 0.12962271
0.123094365 -0.19941485 0.011785016 -0.074490674 0.14836265 0.14378835 0.1477032 -0.15393808
0.093933 -0.109059654 0.1511551 0.16503894 -0.1770742 0.16423313 -0.1105784 -0.0800643
-0.14290752 -0.11144166 -0.121446885 -0.15705253 -0.07946751 0.19817127 -0.13708858 0.11967195
0.0956016 -0.16795744 -0.1987748 0.16248903 -0.1309 -0.081010275 -0.14066617 -0.19562869
-0.16837895 -0.054864146 -0.07755109 -0.062233396 -0.13316646 0.15609221 -0.1308153 -0.049171124
0.1209081 0.15433133 -0.12155262 -0.058258656 0.19113564 0.08287707 0.085851714 -0.124681376
0.22148634 0.16404386 -0.09408104 0.118842505 -0.12200509 -0.19424406 -0.093318984 -0.06816538
-0.07072489 -0.073256515 -0.13561933 -0.15715148 0.14449634 0.1168497 -0.16500124 0.1505216
-0.18845512 -0.1442306 0.16094688 -0.1643709 -0.14152536 -0.17739178 0.13946454 -0.17812431
0.18968813 -0.12057281 0.11591982 0.14540076 0.18847466 -0.12899283 0.1371424 -0.11654145
0.086094074 -0.09845484 -0.103082426 -0.021383174 -0.09126504 0.21598598 0.080342494 0.16019861
0.1716218 -0.13408324 0.15546128 0.1518402 -0.140753 0.11766709 -0.08146076 0.21768145
0.16183805 0.07774288 0.107467055 0.1726514 -0.13868546 0.14106803 0.080806985 -0.12465089
-0.20698982 0.21595974 0.088277 -0.07204998 0.124887325 0.15731025 -0.07536447 -0.13145095
0.22627209 -0.13456813 0.08977367 0.1452741 0.21814352 -0.14716905 0.13584447 -0.062290117
0.0723903 0.15453985 -0.05850914 0.1702205 0.20161894 -0.15388219 -0.14813861 0.12468212
0.17009933 -0.1843449 0.0828391 -0.093316436 0.09311535 -0.23997112 -0.11058896 0.14543849
0.1243974 0.15523008 0.19893529 -0.00097500376 -0.07083268 -0.07801915 0.085567676 -0.07694605
0.14860645 -0.09512663 -0.14258988 0.07286611 0.12258134 -0.13512646 -0.059198678 -0.07595459
-0.12966503 0.071814455 -0.07871356 -0.09085877 -0.1441385 -0.06340442 -0.13374199 0.16504714
0.10250791 -0.13795778 0.21006152 0.11044509 -0.045427352 0.16948432 -0.13915834 -0.15575123
0.13920523 0.15219907 0.15176268 0.17114948 0.15158953 0.14549553 0.10649284 -0.08075395
0.14899436 -0.19103758 0.21223618 -0.12307874 -0.052799076 0.1656225 0.15398566 -0.1248406
0.11445886 0.105020925 -0.15810566 0.16892467 -0.08007469 -0.17528264 0.14931309 -0.15395254
0.10508301 -0.07926754 -0.07094742 -0.16667588 -0.14720179 0.19846103 0.087666035 -0.12257258
-0.10575939 -0.17561018 -0.15205821 -0.08934558 -0.17505485 -0.17763628 0.17234412 -0.11028546
0.14113119 -0.10188772 0.15065089 0.08503079 0.08823816 0.10402705 -0.07135448 -0.13280496
-0.1629425 0.17912814 0.15019922 -0.13011128 -0.15561058 -0.14665176 0.15387559 0.19529665
-0.11400127 -0.12981653 0.1666029 -0.10439121 0.10835226 0.11410734 0.19630349 -0.06264491
-0.042547353 0.14461833 0.1358617 0.1435122 -0.13786374 -0.07817779 -0.07611272 0.17216502
0.18005338 -0.111816294 0.076362245 -0.06300606 -0.17194715 -0.13949972 0.07424029 0.1335964
00000000: 6b7a 2e3e d2ee 2d3e 6840 25be aed2 11be
00000010: 7538 3cbe 4fc9 0a3e 3512 0c3e d1bb 043e
00000020: e618 fc3d 6833 4cbe f115 413c 918e 98bd
00000030: 61ec 173e 413d 133e 823f 173e f2a1 1dbe
00000040: f25f c03d ab5a dfbd 67c8 1a3e f8ff 283e
00000050: f052 35be bb2c 283e ee76 e2bd c0f8 a3bd
00000060: 5956 12be 863b e4bd 25b9 f8bd 61d2 20be
00000070: ddbf a2bd 69ed 4a3e f360 0cbe 9116 f53d
00000080: c6ca c33d 09fd 2bbe 9f8b 4bbe 8663 263e
00000090: a60a 06be b7e8 a5bd cb0a 10be e352 48be
000000a0: 886b 2cbe 3ab9 60bd 1bd3 9ebd 72e8 7ebd
000000b0: ca5c 08be a3d6 1f3e 72f4 05be a967 49bd
000000c0: aa9e f73d 0809 1e3e 94f0 f8bd a1a0 6ebd
000000d0: 10b9 433e 74bb a93d 06d3 af3d f358 ffbd
000000e0: 51cd 623e 1dfb 273e 8fad c0bd b363 f33d
000000f0: cedd f9bd eae7 46be 061e bfbd 4a9a 8bbd
00000100: 36d8 90bd 8307 96bd cbdf 0abe 51ec 20be
00000110: d9f6 133e e54e ef3d 16f6 28be 5622 1a3e
00000120: 61fa 40be 30b1 13be 42cf 243e d850 28be
00000130: 06ec 10be 31a6 35be cbcf 0e3e 3866 36be
00000140: 9b3d 423e e1ee f6bd 5f67 ed3d f0e3 143e
00000150: 80ff 403e b216 04be 0f6f 0c3e 49ad eebd
00000160: 1752 b03d b1a2 c9bd e11c d3bd c42b afbc
00000170: 2ae9 babd 6e2b 5d3e 9b8a a43d 1b0b 243e
00000180: a0bd 2f3e 1e4d 09be 3e31 1f3e ff7b 1b3e
00000190: 8e21 10be 71fb f03d e6d4 a6bd e3e7 5e3e
000001a0: e0b8 253e a937 9f3d b017 dc3d 87cb 303e
000001b0: 9003 0ebe 2374 103e 227e a53d f748 ffbd
000001c0: 24f5 53be 8d24 5d3e 92ca b43d f18e 93bd
000001d0: edc4 ff3d f015 213e b058 9abd 149b 06be
000001e0: dfb3 673e 3acc 09be 42db b73d bcc2 143e
000001f0: 0461 5f3e 7cb3 16be d01a 0b3e ec23 7fbd
00000200: 5e41 943d b23f 1e3e 48a7 6fbd 484e 2e3e
00000210: 3275 4e3e 4b93 1dbe a6b1 17be 5759 ff3d
00000220: 852e 2e3e e9c4 3cbe 8ca7 a93d b01c bfbd
00000230: 43b3 be3d fdba 75be 777c e2bd d4ed 143e
00000240: 10c4 fe3d a2f4 1e3e b1b5 4b3e 6597 7fba
00000250: b910 91bd 81c8 9fbd 1b3e af3d e495 9dbd
00000260: 4a2c 183e c0d1 c2bd 1503 12be d43a 953d
00000270: ed0b fb3d 975e 0abe 507a 72bd 158e 9bbd
00000280: e9c6 04be 7513 933d 9334 a1bd 2a14 babd
00000290: 0b99 13be 2dda 81bd a9f3 08be 1e02 293e
000002a0: abef d13d ce44 0dbe 5e1a 573e 0931 e23d
000002b0: 0812 3abd 4c8d 2d3e 867f 0ebe 407d 1fbe
000002c0: d18b 0e3e 13da 1b3e ad67 1b3e cf41 2f3e
000002d0: 493a 1b3e c8fc 143e eb18 da3d 5462 a5bd
000002e0: fa91 183e 5b9f 43be 7154 593e b510 fcbd
000002f0: d843 58bd f298 293e 6bae 1d3e 6eac ffbd
00000300: 6869 ea3d 3615 d73d 73e6 21be 97fa 2c3e
00000310: 33fe a3bd 4b7d 33be 88e5 183e bca5 1dbe
00000320: c335 d73d 0557 a2bd e24c 91bd 15ad 2abe
00000330: 11bc 16be 5e39 4b3e 408a b33d 5507 fbbd
00000340: 6198 d8bd 28d3 33be 26b5 1bbe d1fa b6bd
00000350: 9441 33be 49e6 35be fa7a 303e 58dd e1bd
00000360: b284 103e 82aa d0bd 3a44 1a3e 9f24 ae3d
00000370: 35b6 b43d 220c d53d 4c22 92bd 06fe 07be
00000380: 66da 26be 5e6d 373e d3cd 193e e43b 05be
00000390: 6158 1fbe e12b 16be 9091 1d3e d8fb 473e
000003a0: 7f79 e9bd a0ee 04be f399 2a3e 0fcb d5bd
000003b0: cae7 dd3d 1cb1 e93d c803 493e f94b 80bd
000003c0: 2246 2ebd d416 143e 541f 0b3e ddf4 123e
000003d0: 272c 0dbe ad1b a0bd fce0 9bbd 074c 303e
000003e0: ea5f 383e f1ff e4bd cf63 9c3d 5209 81bd
000003f0: ea12 30be 04d9 0ebe 4b0b 983d 7fcd 083e

fc3.weight f4 [1, 300]
0.09862895 0.08577195 -0.17569837 -0.13512291 -0.31419593 0.12947083 0.13871752 0.10707614
0.088941805 -0.14615735 -0.5375232 -0.13643447 0.09425948 0.08807011 0.09079551 -0.10545394
0.18627962 -0.1529176 0.071003735 0.11993266 -0.10677451 0.11600933 -0.19684248 -0.15935843
-0.16850026 -0.4748555 -0.15696494 -0.2623936 -0.7008424 0.071103334 -0.13254413 0.14024559
0.12034626 -0.12877336 -0.13081987 0.12600464 -0.2618829 -0.42880744 -0.11293628 -0.098930426
-0.1166647 -0.14985597 -0.123264454 -0.13487573 -0.17528838 0.10373164 -0.13474093 -0.13731833
0.19263923 0.09757575 -0.16884787 -0.1592638 0.083421074 0.17230879 0.11279065 -0.20968105
0.04912217 0.07311814 -0.40829462 0.09958009 -0.15794045 -0.1436925 -0.12826908 -0.43000767
-0.16836609 -0.12623692 -0.08661037 -0.115787305 0.08908076 0.15022522 -0.13198148 0.1077639
-0.12010641 -0.23042606 0.11759208 -0.15617545 -0.09245145 -0.19962439 0.08310385 -0.09939945
0.06988599 -0.18256764 0.13146259 0.10095581 0.10988444 -0.11972249 0.13292915 -0.32306272
0.16250548 -0.25181684 -0.20917189 -0.29225942 -0.13762975 0.06889367 0.14752373 0.07668316
0.09771874 -0.16441868 0.065325454 0.12904415 -0.094671704 0.13812375 -0.22083172 0.081499524
0.1617202 0.11528172 0.13756005 0.13644886 -0.089151576 0.11955896 0.2736905 -0.24113254
-0.12671319 0.07024956 0.09645867 -0.62972224 0.110941686 0.11384764 -0.35276732 -0.13054061
0.055355318 -0.4118681 0.11653143 0.1502894 0.06490368 -0.16942438 0.100572504 -0.13810058
0.23978326 0.07055646 -0.35637537 0.16595505 0.060765836 -0.16991472 -0.14404024 0.131193
0.098241225 -0.21282685 0.1629385 -0.4216584 0.13591574 -0.10794306 -0.19756338 0.21306394
0.13216272 0.07325557 0.07423152 -0.36497653 -0.18904379 -0.3558392 0.13225691 -0.22403713
0.085750595 -0.22770543 -0.13228123 0.12998448 0.10484725 -0.19094695 -0.16771333 -0.24696724
-0.11713691 0.15468244 -0.152216 -0.28244662 -0.12650016 -0.27073058 -0.13105677 0.09494961
0.11044167 -0.11238081 0.09679768 0.12636529 -0.66297215 0.15535244 -0.112499826 -0.14510469
0.1285131 0.11373468 0.121032715 0.092523865 0.08311948 0.11886622 0.16990215 -0.23463438
0.120836236 -0.2035547 0.062476084 -0.09042151 -0.22710516 0.089904316 0.12189001 -0.12025982
0.12522492 0.061776113 -0.12808222 0.07570122 -0.18512322 -0.10966507 0.1721266 -0.103399985
0.076922916 -0.09701179 -0.29482153 -0.13699867 -0.26619965 0.0479158 0.23664449 -0.2499009
-0.13666633 -0.100473 -0.1748785 -0.2622182 -0.1679719 -0.14508699 0.07112283 -0.13420032
0.099037014 -0.4235466 0.051024485 0.2343028 0.17922892 0.16020185 -0.20729016 -0.20579976
-0.11477085 0.09071737 0.12633216 -0.13118987 -0.17570344 -0.09626972 0.13326572 0.08954525
-0.096487 -0.15888359 0.105955444 -0.14311545 0.11344816 0.120940015 0.113793895 -0.39684805
-0.13436565 0.18530156 0.07455666 0.09540182 -0.08471777 -0.5605177 -0.15973486 0.07194295
0.11976004 -0.14379647 0.13541536 -0.25855428 -0.110237025 -0.09854197 0.15148506 0.12927875
00000000: fafd c93d 34a9 af3d 46ea 33be a95d 0abe
00000010: 4ade a0be 0094 043e f70b 0e3e bc4a db3d
00000020: 1f27 b63d 46aa 15be 1f9b 09bf 7ab5 0bbe
00000030: 1d0b c13d 1a5e b43d fff2 b93d 3cf8 d7bd
00000040: 16c0 3e3e 6e96 1cbe 686a 913d 419f f53d
00000050: 98ac dabd 4d96 ed3d 1391 49be db2e 23be
00000060: 558b 2cbe 4320 f3be 6bbb 20be 7458 86be
00000070: 686a 33bf a09e 913d a6b9 07be 8a9c 0f3e
00000080: 1a78 f63d 2add 03be a5f5 05be 5c07 013e
00000090: 8415 86be a68c dbbe 234b e7bd 099c cabd
000000a0: e7ed eebd d873 19be 1372 fcbd dd1c 0abe
000000b0: cc7e 33be 4171 d43d 87f9 09be 2d9d 0cbe
000000c0: 3843 453e cbd5 c73d 75e6 2cbe 0d16 23be
000000d0: abd8 aa3d b771 303e c9fe e63d a1b6 56be
000000e0: 5434 493d f7be 953d fe0b d1be a5f0 cb3d
000000f0: 24bb 21be 2024 13be f858 03be f729 dcbe
00000100: 2968 2cbe 4044 01be c760 b1bd e521 edbd
00000110: f96f b63d a4d4 193e 2726 07be 52b3 dc3d
00000120: 59fa f5bd cff4 6bbe 1ed4 f03d 75ec 1fbe
00000130: 3057 bdbd 566a 4cbe 5a32 aa3d f091 cbbd
00000140: 6320 8f3d 03f3 3abe 219e 063e ebc1 ce3d
00000150: 180b e13d 1131 f5bd 941e 083e 7a68 a5be
00000160: d667 263e 23ee 80be 2831 56be 07a3 95be
00000170: d0ee 0cbe 2018 8d3d 7610 173e 100c 9d3d
00000180: c320 c83d 5f5d 28be 5ac9 853d 2624 043e
00000190: 3de3 c1bd 5070 0d3e b621 62be 39e9 a63d
000001a0: fb99 253e d318 ec3d 8bdc 0c3e 40b9 0b3e
000001b0: 1a95 b6bd 54db f43d 2921 8c3e 73eb 76be
000001c0: 1ac1 01be 00df 8f3d 208c c53d 7a35 21bf
000001d0: 6535 e33d f428 e93d eb9d b4be 70ac 05be
000001e0: 42bc 623d 60e0 d2be 08a8 ee3d 77e5 193e
000001f0: 38ec 843d 967d 2dbe f5f8 cd3d 3d6a 0dbe
00000200: be89 753e e87f 903d d576 b6be 1ff0 293e
00000210: 99e5 783d 20fe 2dbe 497f 13be 7557 063e
00000220: b232 c93d 48ef 59be 5ad9 263e 9ce3 d7be
00000230: 7f2d 0b3e 4011 ddbd 0e4e 4abe 6f2d 5a3e
00000240: aa55 073e 0407 963d b206 983d 34de babe
00000250: b294 41be 8e30 b6be 5b6e 073e fd69 65be
00000260: 029e af3d 9d2b 69be bb74 07be a71a 053e
00000270: 28ba d63d 9987 43be 0bbd 2bbe fbe4 7cbe
00000280: 7ae5 efbd 1365 1e3e 83de 1bbe d89c 90be
00000290: 4289 01be 339d 8abe bf33 06be f174 c23d
000002a0: 3e2f e23d e927 e6bd dd3d c63d e765 013e
000002b0: 8bb8 29bf b614 1f3e 4f66 e6bd 5396 14be
000002c0: f098 033e baed e83d 00e0 f73d 277d bd3d
000002d0: 8c3a aa3d 2270 f33d d4fa 2d3e ff43 70be
000002e0: fd78 f73d a570 50be ece6 7f3d ea2e b9bd
000002f0: 418e 68be c11f b83d 78a1 f93d c84a f6bd
00000300: f63a 003e f308 7d3d fc27 03be 3e09 9b3d
00000310: f190 3dbe 1598 e0bd f541 303e 5fc3 d3bd
00000320: c389 9d3d 1eae c6bd d9f2 96be 6149 0cbe
00000330: 524b 88be 5c43 443d ef52 723e 06e6 7fbe
00000340: 42f2 0bbe cac4 cdbd 5913 33be 7741 86be
00000350: d300 2cbe af91 14be d9a8 913d cf6b 09be
00000360: ebd3 ca3d 1adb d8be 0dff 503d 13ed 6f3e
00000370: c987 373e f40b 243e df43 54be 2cbd 52be
00000380: fb0c ebbd 07ca b93d 385d 013e a356 06be
00000390: 9aeb 33be 0f29 c5bd cf76 083e 8063 b73d
000003a0: fa9a c5bd 61b2 22be 2bff d83d db8c 12be
000003b0: 8257 e83d 66af f73d c60c e93d ab2f cbbe
000003c0: 2697 09be b1bf 3d3e 2ab1 983d 0862 c33d
000003d0: 8380 adbd 177e 0fbf 8991 23be d356 933d
000003e0: c044 f53d 623f 13be 53aa 0a3e 3a61 84be
000003f0: f3c3 e1bd 5fd0 c9bd e61e 1b3e a661 043e
